model/first_model.pkl (torch_old, 11392 bytes, 6 tensors)

weight f4 [32, 12]
0	0x3e934ca4	0.2876941
1	0xbd1a5083	-0.03767444
2	0xbe18942b	-0.14900272
3	0xbe66a14e	-0.2252247
4	0x3e53a71f	0.2066922
5	0x3e74fbe3	0.23924212
6	0xbd8534d4	-0.06504217
7	0x3dd4a6eb	0.103833996
8	0x3da2e80b	0.07954415
9	0xbe31dc12	-0.17369106
10	0x3da3b9d9	0.07994432
11	0xbe20fbfe	-0.15721127
12	0xbdf6c7df	-0.12049841
13	0xbe2b140c	-0.16706866
14	0xbe7b0c27	-0.24516355
15	0xbdb89549	-0.09012849
16	0x3e5f6e34	0.21819383
17	0x3e3decf0	0.18547416
18	0x3a5dfdba	0.0008468289
19	0x3e872c7a	0.2640112
20	0x3e8b9dba	0.27268773
21	0xbe50f3b5	-0.20405467
22	0x3e84a5d4	0.25907767
23	0xbde51eaf	-0.11187493
24	0x3c1e3beb	0.00965784
25	0x3df182ca	0.11792524
26	0xbe8c275d	-0.27373782
27	0x3e89d391	0.26919225
28	0xbc99105e	-0.018684562
29	0x3e7c02ae	0.24610397
30	0x3d9572af	0.07297265
31	0x3e756c5f	0.23967122
32	0xbd857910	-0.065172315
33	0x3dd286a4	0.10279587
34	0x3e89fd88	0.26951241
35	0xbe876363	-0.26443014
36	0xbca4504c	-0.02005782
37	0x3e371ba7	0.17881642
38	0xbe759c5a	-0.23985425
39	0xbe04058b	-0.1289274
40	0x3dd42158	0.10357922
41	0x3e729ad7	0.23691879
42	0xbc94b246	-0.018151414
43	0xbdc53e71	-0.096310504
44	0xbd8622b3	-0.06549587
45	0xbe7adecb	-0.24499051
46	0x3e0627bb	0.13101093
47	0xbe5dbb26	-0.21653423
48	0x3e65b2a3	0.22431426
49	0x3da03686	0.078228995
50	0xbe8355a4	-0.25651276
51	0x3db90005	0.09033207
52	0xbc782a4c	-0.015146803
53	0x3d6ea7ff	0.058265682
54	0xbd1e37d5	-0.038627464
55	0x3e19cb6c	0.15019006
56	0x3e3917d5	0.18075497
57	0xbddd5b0f	-0.10808384
58	0xbe374fa1	-0.1790147
59	0xbe031273	-0.12800007
60	0x3e8e255f	0.27762887
61	0xbe8cd043	-0.2750264
62	0x3e6df6b2	0.23238638
63	0x3e8563ac	0.26052606
64	0x3e123c8a	0.14280906
65	0xbd146e7d	-0.036238182
66	0x3e184625	0.14870508
67	0xbe615316	-0.22004351
68	0xbe808459	-0.25100973
69	0x3e17eff6	0.14837632
70	0xbe63aaf3	-0.2223318
71	0x3e072659	0.13198222
72	0xbe8aa9c9	-0.2708266
73	0xbe663c20	-0.22483873
74	0xbe460421	-0.19337513
75	0xbdee270d	-0.11628542
76	0x3dc06b9b	0.09395524
77	0x3e84d44a	0.25943214
78	0x3e10a0a1	0.14123775
79	0xbd9356c2	-0.07194282
80	0x3d92521f	0.071445696
81	0xbe8f63b7	-0.28005764
82	0x3da46fd5	0.08029143
83	0xbdadb578	-0.08481878
84	0x3c1e32ff	0.009655713
85	0xbdd18a1b	-0.1023142
86	0x3e6eeacb	0.23331754
87	0x3e4a06ad	0.19729109
88	0xbe02e998	-0.12784421
89	0xbdb2ae28	-0.08724624
90	0x3e7c0a1c	0.24613231
91	0x3c215fe8	0.009849526
92	0x3deca180	0.11554241
93	0xbde1f643	-0.11033299
94	0x3d5eb7ca	0.054374494
95	0xbe923583	-0.2855645
96	0x3cec9776	0.028880816
97	0xbd36f719	-0.044669244
98	0x3e8db671	0.27678254
99	0xbe74f519	-0.23921622
100	0xbdc86573	-0.09784975
101	0x3e309a2a	0.17246309
102	0x3e55fab0	0.20896411
103	0xbdd9d533	-0.10636368
104	0xbdd549a9	-0.1041444
105	0xbe77245a	-0.24134961
106	0xbd974e3a	-0.073879674
107	0xbe6119ae	-0.21982452
108	0x3e700451	0.23439147
109	0x3e4d6a68	0.20060122
110	0xbdc1d5fd	-0.09464643
111	0x3e90d873	0.28290138
112	0xbe9300ad	-0.28711453
113	0xbcdabd65	-0.026701638
114	0x3e0b353f	0.1359453
115	0x3e9100e1	0.28320983
116	0xbe29a6db	-0.16567557
117	0xbe8c704b	-0.27429423
118	0x3e08feaf	0.13378404
119	0xbe4b1539	-0.19832315
120	0x3ddefc83	0.108880065
121	0x3e59291f	0.21207093
122	0x3e29db00	0.16587448
123	0xbde999dc	-0.114062995
124	0x3d9c27b8	0.07624763
125	0x3dbf6e3b	0.09347197
126	0x3da0ee11	0.078579076
127	0x3e74a227	0.23889981
128	0xbdd0d40e	-0.10196696
129	0xbe8d2b43	-0.2757207
130	0x3e84298e	0.25812954
131	0x3e8a92a4	0.27065003
132	0x3de85d3f	0.1134591
133	0xbe7a2500	-0.24428177
134	0xbcb423c4	-0.02198971
135	0xbd12ae42	-0.035810716
136	0x3e4eafa9	0.20184197
137	0xbe2116ec	-0.157314
138	0x3e8e2863	0.27765188
139	0x3e219ef6	0.15783295
140	0xbcc80dde	-0.024420675
141	0x3e9000e2	0.28125674
142	0x3e51cb64	0.20487744
143	0xbde0692a	-0.109575585
144	0x3d48a9f2	0.048990197
145	0xbd007f3d	-0.031371344
146	0x3e563824	0.20919853
147	0xbdb71134	-0.08938828
148	0x3dace7b7	0.084426336
149	0xbe878600	-0.2646942
150	0xbdf1a753	-0.11799493
151	0x3b1f6588	0.0024321992
152	0x3e308c72	0.17241076
153	0x3dd4b05a	0.10385199
154	0xbcd562ae	-0.02604803
155	0x3d8577ca	0.065169886
156	0xbe495d24	-0.19664437
157	0x3d86bab6	0.06578581
158	0xbe0c9deb	-0.13732116
159	0xbc94f166	-0.018181514
160	0xbde190a5	-0.11013917
161	0x3e1efc37	0.155259
162	0xbe85b9fc	-0.26118457
163	0xbc33eac6	-0.010981267
164	0x3e469bfe	0.19395444
165	0xbe26b9a7	-0.16281758
166	0xbe365753	-0.17806749
167	0xbd7f3892	-0.06230981
168	0xbe6d5431	-0.23176648
169	0x3ddeac61	0.108727224
170	0xbde8d7a5	-0.11369256
171	0xbe88edd3	-0.26743945
172	0x3dddc7b2	0.108291045
173	0xbca93f83	-0.020660168
174	0xbe722bc0	-0.23649502
175	0x3cb8e126	0.022568297
176	0x3e77291d	0.24136777
177	0xbe311e44	-0.17296702
178	0xbe920826	-0.28521842
179	0x3db1468f	0.08656036
180	0x3e2848cf	0.16434024
181	0x3d46baaa	0.04851786
182	0x3e704553	0.23463945
183	0xbdeab71d	-0.11460707
184	0x3e1bf185	0.15228851
185	0x3daa4463	0.08313825
186	0x3d98b99b	0.074572764
187	0x3e893d18	0.26804423
188	0x3e1f3ff3	0.15551738
189	0x3e53b910	0.20676064
190	0xbe38f1c2	-0.18060973
191	0xbe04eb8e	-0.12980482
192	0xbe573fb7	-0.21020399
193	0x3e07760c	0.13228625
194	0xbe5cb484	-0.21553236
195	0x3e771006	0.24127206
196	0x3e9257d4	0.28582633
197	0x3dfe3f07	0.12414365
198	0x3e58697e	0.21133992
199	0xbe51d7d1	-0.20492484
200	0x3e04e752	0.12978867
201	0xbdc1fab7	-0.09471648
202	0xbd519144	-0.051163927
203	0x3db08d86	0.086207435
204	0x3e4d48a3	0.2004724
205	0xbca8df43	-0.020614272
206	0x3e4a9e62	0.19786981
207	0xbe150f21	-0.14556552
208	0x3e2f9489	0.17146505
209	0xbded1a6c	-0.11577305
210	0x3e92c100	0.28662872
211	0x3e8248db	0.2544621
212	0xbda1f090	-0.07907212
213	0x3d9ea3a2	0.07746054
214	0x3a1ffa51	0.00061026687
215	0x3e81f3df	0.2538137
216	0x3d270528	0.0407764
217	0xbe3993bf	-0.18122767
218	0x3e29b067	0.16571198
219	0xbe61a4d2	-0.2203553
220	0x3cbaa942	0.022785787
221	0x3e48b3ab	0.19599788
222	0x3da109ed	0.07863221
223	0xbdfdff87	-0.124022536
224	0x3e887b75	0.2665669
225	0x3e75efff	0.24017332
226	0x3dfaed82	0.12252332
227	0x3e001689	0.12508596
228	0xbd05e62a	-0.032690205
229	0xbe8d1155	-0.27552286
230	0x3c890a2d	0.016728485
231	0xbb633ffe	-0.0034675593
232	0xbe8877f9	-0.26654032
233	0xbd82696d	-0.063677646
234	0xbd5e5d09	-0.054287944
235	0x3db2448b	0.0870448
236	0xbd2331bd	-0.039842356
237	0xbd1e7652	-0.038687058
238	0xbdc92e54	-0.098232895
239	0xbe107edd	-0.14110895
240	0xbd655391	-0.0559879
241	0x3e2ebeae	0.17064926
242	0xbd104a9e	-0.03522741
243	0xbe4d579b	-0.2005295
244	0xbd754dbd	-0.05988859
245	0xbe0f0066	-0.13964996
246	0x3e12a75c	0.14321655
247	0xbd192473	-0.037388276
248	0x3d2a90a6	0.041641854
249	0xbe60e029	-0.2196051
250	0xbe83fd0b	-0.25778994
251	0x3dd8da76	0.10588543
252	0x3e917510	0.28409624
253	0xbe0550d8	-0.1301912
254	0x3d9ae72d	0.075636245
255	0x3dd0d874	0.10197535

bias f4 [32]
0	0xbdd082c8	-0.101811945
1	0x3e8e3159	0.27772024
2	0x3d95ca8e	0.07314025
3	0x3d838318	0.064214885
4	0xbdd9a0b7	-0.10626357
5	0x3e2f0fa3	0.17095809
6	0xbb8a51e2	-0.004221187
7	0x3e56124f	0.20905422
8	0xbc34dd03	-0.011039021
9	0x3e5b33d0	0.21406484
10	0xbdecbd9b	-0.11559602
11	0x3db510b7	0.08841079
12	0x3e8436a4	0.25822937
13	0xbd7377aa	-0.059440292
14	0x3d1a33a6	0.037646912
15	0x3db44166	0.08801536
16	0xbbacb151	-0.005270161
17	0xbbf91024	-0.007600801
18	0x3daa41ce	0.083133325
19	0x3e18afa4	0.14910752
20	0xbe202e42	-0.15642646
21	0x3e0e846b	0.13917701
22	0xbe8830ed	-0.26599827
23	0xbe7758af	-0.24154924
24	0xbe54e72b	-0.20791309
25	0xbd74bdd1	-0.059751336
26	0xbe6eec2d	-0.23332281
27	0x3dd4cfd9	0.10391206
28	0x3e88b6fe	0.26702112
29	0xbd8ed846	-0.06974845
30	0x3e4c6be5	0.19963033
31	0xbda095d3	-0.07841077

weight f4 [32, 32]
0	0x3e285c69	0.16441502
1	0x3bc03557	0.0058657336
2	0x3dcb2e59	0.099209495
3	0x3e261f8d	0.16222973
4	0xbe20f495	-0.157183
5	0x3d0be963	0.03415812
6	0xbe276c5f	-0.16349934
7	0x3cc71a43	0.024304515
8	0x3bc689d4	0.006058911
9	0x3de821b5	0.11334554
10	0x3d52d396	0.051471315
11	0x3dbf256a	0.09333308
12	0xbcc3d953	-0.02390734
13	0xbe053453	-0.13008241
14	0x3d93a5c2	0.0720935
15	0x3e1457a7	0.14486562
16	0xbdceb032	-0.100922
17	0x3ddfa3d5	0.1091992
18	0xbd009234	-0.03138943
19	0x3c6dc323	0.014511856
20	0xbdff532b	-0.12467035
21	0xbd27a016	-0.040924154
22	0x3da80b3b	0.08205267
23	0xbdaef6cb	-0.08543166
24	0xbd9b408d	-0.075806715
25	0xbe24e597	-0.16103207
26	0x3e21f058	0.1581434
27	0x3d520eff	0.051283833
28	0xbe165510	-0.14680886
29	0xbd908f33	-0.07058563
30	0xbdb13697	-0.0865299
31	0xbc829ca7	-0.015943838
32	0xbe093e05	-0.13402565
33	0x3e16a962	0.14713052
34	0xbd703964	-0.058648482
35	0xbdb0cae3	-0.086324476
36	0xbc85f5a3	-0.01635248
37	0xbdb5df0d	-0.08880434
38	0xbdcb7b20	-0.099355936
39	0xbdcba13b	-0.09942862
40	0xbda8765f	-0.082257025
41	0xbe1cca84	-0.15311629
42	0xbd690947	-0.056893613
43	0xbd272744	-0.04080893
44	0xbdc319a5	-0.09526376
45	0x3d8f6211	0.070011266
46	0x3d682d12	0.056683607
47	0xbdec0b65	-0.11525611
48	0x3e264456	0.16237006
49	0xbdf34c07	-0.118797354
50	0xbd6d029d	-0.05786382
51	0xbcee517d	-0.029091591
52	0x3e24ed18	0.16106069
53	0x3dfc1586	0.12308793
54	0x3d484673	0.04889531
55	0xbc3c182b	-0.0114803715
56	0x3da0694b	0.07832583
57	0x3e1a8798	0.15090787
58	0xbce97415	-0.028497735
59	0xbe08188e	-0.13290617
60	0xbe1ef18f	-0.15521835
61	0xbe0e2d4a	-0.13884464
62	0xbd58f071	-0.052963678
63	0x3d3b1658	0.045675606
64	0xbcf42e32	-0.029807184
65	0x3e143adc	0.14475578
66	0x3e3435f1	0.17598702
67	0xbe210434	-0.1572426
68	0xbca7e86e	-0.020496573
69	0x3d5a105f	0.05323827
70	0x3db1ce68	0.08681947
71	0xbdef8a12	-0.11696257
72	0xbe120e68	-0.14263308
73	0x3dc42d24	0.095789224
74	0x3e3149dd	0.17313333
75	0x3d87ecb1	0.06636942
76	0x3d9bc022	0.07605006
77	0xbd01cbee	-0.031688623
78	0xbde6034a	-0.11231096
79	0x3dcda1b8	0.10040611
80	0xbe034fef	-0.12823461
81	0xbd655684	-0.05599071
82	0x3d2a7753	0.041617703
83	0x3e12fc28	0.14354002
84	0xbd9d4cad	-0.0768064
85	0xbe186ee5	-0.14886053
86	0x3e116d00	0.14201736
87	0xbe1fcdd0	-0.15605855
88	0x3de868c8	0.113481104
89	0xbda61891	-0.081101544
90	0x3dd2af48	0.102873385
91	0xbd8699b0	-0.06572282
92	0x3d8c8c7c	0.06862733
93	0xbd5fb874	-0.054619268
94	0xbdd40494	-0.10352436
95	0xbe1a80d4	-0.15088207
96	0x3db5d1bf	0.088778965
97	0x3c32feb8	0.0109249875
98	0x3d13a79f	0.036048528
99	0x3df8b360	0.12143588
100	0xbdc7e624	-0.09760693
101	0x3c2bb27e	0.010479568
102	0xbce80ded	-0.028326953
103	0xbe26f0d8	-0.16302812
104	0x3d98607e	0.074402794
105	0xbded1c67	-0.11577683
106	0xba3437c8	-0.0006874767
107	0x3def555b	0.11686202
108	0xbe0d3aed	-0.1379201
109	0xbd9b31cb	-0.07577857
110	0x3dc4762f	0.09592854
111	0xbc811da4	-0.015761204
112	0xbd941a6d	-0.07231603
113	0x3de3027f	0.110844605
114	0x3d66b17a	0.0563216
115	0xbd4782dd	-0.048708785
116	0x3dd762b2	0.105168715
117	0x3dc32af7	0.09529679
118	0x3defc034	0.11706582
119	0xbd9283e7	-0.071540646
120	0x3db0fdb5	0.08642141
121	0x3d8be74d	0.068312265
122	0x3e137fad	0.14404173
123	0xbd97b564	-0.074076444
124	0xb967018b	-0.00022030452
125	0xbd98e20c	-0.0746499
126	0xbd033193	-0.0320297
127	0x3cf85c80	0.030317545
128	0x3e1f026a	0.15528265
129	0x3cbdb2a3	0.02315647
130	0x3d210808	0.0393143
131	0x3e2d59f8	0.16928852
132	0x3cbe2330	0.023210138
133	0x3c9b5fcf	0.018966584
134	0x3cdac8af	0.026707022
135	0xbd2f7960	-0.04284036
136	0x3c5d53e1	0.013508768
137	0x3cd4714c	0.02593293
138	0xbd30bc1e	-0.043148153
139	0xbcf52695	-0.029925624
140	0xbd7fe7af	-0.06247681
141	0xbdb7a73e	-0.08967446
142	0x3a1afef9	0.00059126277
143	0x3d3d2f73	0.04618783
144	0xbe1ac9be	-0.15116021
145	0xbce90ff2	-0.028449986
146	0x3dc7ed69	0.09762079
147	0x3da8a342	0.08234264
148	0xbd99a812	-0.0750276
149	0x3d76c3c2	0.060245283
150	0x3d7a7410	0.061145842
151	0xbe09512a	-0.13409868
152	0xbd1b15b3	-0.03786249
153	0x3cdd2c55	0.026998678
154	0x3d84f9fc	0.06492993
155	0xbd9d68c4	-0.07685998
156	0x3d030488	0.031986743
157	0xbc803c8c	-0.015653871
158	0xbd595d9c	-0.05306779
159	0xbdb5e2b6	-0.08881132
160	0xbd7d5e66	-0.061857603
161	0x3df37f1d	0.11889479
162	0x3cd4a398	0.025956914
163	0xbde3ccc2	-0.11123039
164	0xbd34bd4f	-0.04412585
165	0x3e0a7ce2	0.13524202
166	0x3e1703dd	0.14747567
167	0x3d419e6d	0.047270227
168	0xbe0f87f0	-0.140167
169	0x3de4ba55	0.111683525
170	0xbe2cd1cb	-0.16876905
171	0x3ddecf20	0.1087935
172	0xbde1d877	-0.110276155
173	0xbc20232c	-0.009774011
174	0x3de02129	0.10943825
175	0xbda005cb	-0.07813605
176	0x3de2f05c	0.11081001
177	0x3cc7f302	0.024407867
178	0xbcabc3ea	-0.020967443
179	0xbe280561	-0.16408302
180	0xbe2b4f51	-0.16729476
181	0xbdb73c5e	-0.08947061
182	0xbcb4d8f0	-0.0220761
183	0xbd12cfdb	-0.035842758
184	0xbd416bc1	-0.047221903
185	0xbd88ed37	-0.0668587
186	0xbddd320e	-0.10800563
187	0xbd42dfa2	-0.047576554
188	0x3ae8383c	0.0017716954
189	0x3e012725	0.12612589
190	0xbe21a7e7	-0.15786706
191	0xbe2f2f6b	-0.17107932
192	0x3d228ee7	0.039687064
193	0xbbb5da36	-0.0055496944
194	0x3d9cdd5b	0.07659408
195	0x3cf59a40	0.029980779
196	0xbd072745	-0.032996435
197	0xbd0a0b91	-0.033702437
198	0x3dc382ad	0.09546409
199	0xbe2c8283	-0.16846661
200	0xbe119596	-0.14217219
201	0x3d6108e7	0.05494013
202	0xbe1ae9aa	-0.15128198
203	0x3dc5da5e	0.09660791
204	0xbc61acf1	-0.013774143
205	0x3dd0a5a1	0.10187841
206	0x3de23caf	0.11046731
207	0xbe286a4d	-0.164468
208	0x3e2683d9	0.16261233
209	0x3d8d90da	0.06912394
210	0x3b9b2374	0.004734451
211	0x3d2a3bda	0.041560985
212	0x3e1d1303	0.15339284
213	0x3d920057	0.07128971
214	0xbdaeb071	-0.08529747
215	0xbe15c2fd	-0.14625163
216	0xbdf0367f	-0.11729144
217	0x3dd98f1f	0.10623001
218	0xbdd5a104	-0.10431102
219	0xbd9af1f8	-0.07565683
220	0xbd463982	-0.048394687
221	0xbe182639	-0.14858331
222	0x3e0ca286	0.13733873
223	0x3e025f17	0.12731586
224	0xbe1256c4	-0.14290911
225	0xbe122b01	-0.14274217
226	0xbcad06e5	-0.021121452
227	0x3e0b3e93	0.13598089
228	0xbdcdfbcf	-0.10057794
229	0xbc111930	-0.008856103
230	0x3ceb6ff6	0.02873991
231	0xbe2157e3	-0.15756182
232	0x3e2c41fd	0.16822048
233	0x3e2ea8cb	0.17056577
234	0xbde2cef8	-0.110746324
235	0x3cd7c1d4	0.026337542
236	0x3cfb294f	0.030659346
237	0x3e06153a	0.13094035
238	0xbd711677	-0.058859315
239	0x3e0648eb	0.13113753
240	0x3d543a2c	0.05181329
241	0x3da0351f	0.07822632
242	0xbda0ed7d	-0.07857797
243	0x3e03b563	0.12862162
244	0x3db29945	0.0872064
245	0xbd222540	-0.039586306
246	0x3d736ac3	0.059427988
247	0xbd3b0ce1	-0.04566658
248	0x3e2c5692	0.16829899
249	0xbe04ffcb	-0.12988202
250	0x3e1bfff1	0.15234353
251	0xbd8bfb14	-0.06834999
252	0x3e04ce45	0.1296931
253	0x3c91b8bb	0.017788282
254	0xbe1d4941	-0.15359975
255	0x3e04adfe	0.12956998

bias f4 [32]
0	0xbdc87fdc	-0.09790012
1	0xbdc0371e	-0.09385513
2	0x3e18f27a	0.14936247
3	0x3ca4ad85	0.020102272
4	0x3e1e4329	0.15455307
5	0xbda02033	-0.078186415
6	0xbdab6dad	-0.08370528
7	0x3db65f50	0.08904898
8	0x3d9d0784	0.07667449
9	0xbafb2eab	-0.0019163688
10	0xbe232c93	-0.15934972
11	0xbe266bd8	-0.16252077
12	0xbe03e8ef	-0.12881826
13	0x3d8cdac0	0.06877661
14	0xbde0e42b	-0.109810196
15	0xbc0d894d	-0.008638692
16	0x3e1c8f07	0.15288936
17	0xbc76cf60	-0.0150640905
18	0xbe28d1c4	-0.16486269
19	0x3c16a657	0.009194932
20	0x3c1a4451	0.009415702
21	0xbcffd187	-0.03122784
22	0x3e311ab2	0.1729534
23	0xbd3eea7a	-0.046610333
24	0xbdb6aee5	-0.08920077
25	0x3c94a403	0.018144613
26	0xbe006d82	-0.12541774
27	0x3de477dc	0.11155674
28	0xbd0eb5bf	-0.034841295
29	0x3c566136	0.0130847
30	0xbd351795	-0.044211943
31	0x3c5f875f	0.013643115

weight f4 [6, 32]
0	0x3dd96d54	0.10616556
1	0xbda3d1d3	-0.07999005
2	0xbd1c928c	-0.038225695
3	0x3df23341	0.11826182
4	0x3c303f64	0.010757301
5	0xbc8f766c	-0.017512523
6	0x3b89d3d1	0.0042061587
7	0x3d37ad58	0.044843048
8	0xbd23e593	-0.04001386
9	0x3d42d5c2	0.047567137
10	0x3dc69757	0.096968345
11	0xbcf4970a	-0.029857177
12	0xbe1a036c	-0.15040368
13	0x3dd1746d	0.102272846
14	0xbdb23405	-0.08701328
15	0x3c78e0b2	0.01519029
16	0xbe260576	-0.1621302
17	0xbe1bf4ed	-0.1523015
18	0x3d4d4ebb	0.05012391
19	0xbdb4671d	-0.0880873
20	0x3e33858a	0.1753141
21	0x3e091621	0.13387348
22	0xbe21bd6f	-0.1579492
23	0xbd177be4	-0.036983386
24	0x3dca5658	0.0987975
25	0xbe009faf	-0.12560914
26	0x3d289902	0.041161545
27	0xbdcd9c2a	-0.100395516
28	0xbcf9817f	-0.030457256
29	0xbde83907	-0.11339002
30	0x3d88da53	0.06682267
31	0xbcf89b12	-0.03034738
32	0x3daca652	0.084301606
33	0x3e0dbbef	0.13841222
34	0xbe0fe030	-0.14050364
35	0xbdf03e6c	-0.11730656
36	0x3d919e21	0.07110239
37	0xbe0f1abf	-0.13975047
38	0x3c86ef58	0.01647155
39	0x3d5aa79a	0.053382494
40	0x3e143487	0.14473163
41	0xbdb2045a	-0.08692236
42	0x3c8f84e7	0.017519427
43	0xbd5fe350	-0.05466014
44	0x3c4c4729	0.012468138
45	0x3dc4baae	0.09605919
46	0x3dc56330	0.09638059
47	0xbdf5cb08	-0.12001616
48	0xbd7392cf	-0.05946618
49	0xbe2a7c27	-0.16648923
50	0x3e2b80c4	0.16748339
51	0x3d856bb9	0.06514687
52	0x3e050cca	0.1299316
53	0x3e1c8fb3	0.15289192
54	0xbd42c329	-0.0475494
55	0xbdeaa201	-0.11456681
56	0xbc4b2f82	-0.012401463
57	0x3c8c4e82	0.01712728
58	0xbe267651	-0.16256072
59	0x3e28048c	0.16407984
60	0x3dedab90	0.116049886
61	0xbdcdaf56	-0.10043208
62	0x3d02a74b	0.031897824
63	0xbdb18170	-0.08667266
64	0x3ca836dd	0.020533973
65	0x3d321b3c	0.043483004
66	0xbdcd5c8f	-0.1002742
67	0x3defbee1	0.11706329
68	0xbe2f026a	-0.17090765
69	0xbc9d3f56	-0.01919524
70	0xbe34a3a6	-0.17640552
71	0x3d909473	0.070595644
72	0x3e1be534	0.15224153
73	0xbdeeaff2	-0.11654653
74	0x3dd757bd	0.105147816
75	0xbdb24caa	-0.08706029
76	0x3d4bc1fb	0.04974554
77	0x3db6e59a	0.08930512
78	0xbdded35e	-0.10880159
79	0x3e072d7d	0.13200946
80	0xbdcf76d1	-0.10130084
81	0x3cfeb5f4	0.031092621
82	0x3d5fd0ef	0.054642614
83	0xbca4f1a7	-0.02013476
84	0xbe21dc81	-0.15806772
85	0x3e1754c2	0.14778426
86	0x3e1876fa	0.14889136
87	0x3d97b266	0.07407074
88	0x3e346eb2	0.17620352
89	0x3e184aac	0.14872235
90	0x3dd86bb4	0.10567418
91	0xbd58c99e	-0.052926652
92	0x3e1c1d2a	0.152455
93	0xbe1097da	-0.14120427
94	0x3e044cc6	0.12919912
95	0xbda3eb76	-0.08003895
96	0xbcadd863	-0.021221345
97	0x3e143896	0.14474711
98	0x3d877ff6	0.066162035
99	0xbe2633b2	-0.16230658
100	0x3d40e7d7	0.0470961
101	0xbe23263e	-0.15932557
102	0xbc67b185	-0.014141445
103	0xbc915513	-0.017740762
104	0xba9a007e	-0.0011749414
105	0xbda1d188	-0.07901293
106	0x3d9e31e4	0.0772436
107	0xbe322835	-0.1739815
108	0xbd994edd	-0.07485745
109	0x3d861f15	0.06548897
110	0x3a816139	0.0009870894
111	0xbdf618e1	-0.12016464
112	0xbe1a1f85	-0.15051086
113	0x3b731244	0.0037089745
114	0xbcfbc2c4	-0.03073252
115	0xbc41ff06	-0.0118405875
116	0x3e093847	0.13400374
117	0xbdf65bc0	-0.12029219
118	0x3e01e078	0.12683284
119	0x3db5b0e1	0.088716276
120	0x3df35d8d	0.11883078
121	0x3e307871	0.17233445
122	0xbe0f4355	-0.13990529
123	0xbdebb66a	-0.11509402
124	0xbe015f37	-0.12633978
125	0x3c517abf	0.012785613
126	0x3df9200f	0.12164318
127	0xbe263167	-0.16229783
128	0xbe035bff	-0.12828062
129	0x3c79d813	0.01524927
130	0xbcffb094	-0.031212129
131	0x3aee30c3	0.0018172491
132	0x3d212629	0.039343033
133	0x3dc53e7d	0.09631059
134	0xbd7bdefe	-0.06149196
135	0x3d876dfa	0.06612773
136	0xbd12516d	-0.035722185
137	0x3e25092e	0.16116783
138	0x3d9d5c85	0.07683662
139	0xbd2e35bb	-0.04253171
140	0xbd93c3b4	-0.07215062
141	0x3de2e21b	0.110782824
142	0xbe229c6d	-0.15879984
143	0x3cd747ec	0.026279412
144	0xbe3317c0	-0.17489529
145	0xbe008208	-0.12549603
146	0xbe3256cb	-0.17415921
147	0xbd4fa771	-0.050696794
148	0x3d2432ca	0.0400875
149	0xbc2bd19b	-0.010486986
150	0x3e2464a8	0.16054022
151	0x3daaf5cc	0.08347663
152	0xbd3a86ec	-0.045538828
153	0x3e2cf1e7	0.16889153
154	0xbd0c6720	-0.034278035
155	0xbe079e2e	-0.13243935
156	0x3cc7c13c	0.024384134
157	0xbde6e422	-0.11273982
158	0x3dc14a8e	0.09438048
159	0x3e0aa311	0.13538767
160	0x3e25f83e	0.16207978
161	0x3dd4899b	0.10377809
162	0xbdeb1037	-0.11477702
163	0xbdce229d	-0.10065196
164	0x3e1554f1	0.14583184
165	0xbdd054d2	-0.10172428
166	0xbddb1634	-0.10697594
167	0xbd9046a8	-0.070447266
168	0x3b8ffdfa	0.00439429
169	0xbe12db22	-0.14341405
170	0x3dde159b	0.10843965
171	0x3d4b4a89	0.04963163
172	0xbdc9864b	-0.098400675
173	0x3d4e0de1	0.050306205
174	0x3e22e4ac	0.15907544
175	0xbdc4e259	-0.09613485
176	0x3c0c8f92	0.008579152
177	0xbe129c7e	-0.1431751
178	0xbe2cd79d	-0.16879125
179	0xbd7f19cb	-0.062280457
180	0x3c8d3143	0.017235404
181	0x3e0fad0e	0.14030859
182	0xbd28cd17	-0.041211214
183	0xbd9359a6	-0.071948335
184	0xbd58964d	-0.052877713
185	0x3e293552	0.16524246
186	0x3da32b31	0.079672225
187	0xbe294560	-0.1653037
188	0xbe327b17	-0.17429768
189	0xbd9969e8	-0.07490903
190	0x3e0aaa03	0.13541417
191	0x3dbe8161	0.09302021

bias f4 [6]
0	0x3c8d2bd2	0.01723281
1	0x3dd4af48	0.10384995
2	0x3db757cd	0.089522935
3	0xbd8b096a	-0.06788905
4	0xbdb09166	-0.086214826
5	0x3da7e8ea	0.08198722
