model/model.pkl (torch_old, 11392 bytes, 6 tensors)

weight f4 [32, 12]
00000000: 095f 8ebe baf2 843d c87d 003e cc59 fc3d
00000010: f173 733e 45b7 98be 6838 3fbc 3ba1 863e
00000020: 0a92 78bd 7ef5 4cbe 8d20 893e bf16 ebbd
00000030: 6f2a 1abe 4933 a73d 2ef6 1d3c 6a91 643d
00000040: 5249 413e 00c0 da3c 1248 ad3d be93 1fbe
00000050: e401 183e 0541 0d3e 6825 2abe c2f5 74be
00000060: 358a cd3e 40df a93e 11a7 293d 9a80 7d3e
00000070: 2b0f 9b3b c7d8 a9bd b5e9 ba3e 3184 653e
00000080: 7baf fd3d 7d68 5f3d 79b8 9c3e 2bb4 b23e
00000090: f96c 5a3e a8e8 b2ba 8427 12be b777 863e
000000a0: 9554 3fbd 6b7c 4dbe 0865 0a3e a339 13bd
000000b0: b181 873e cc30 9cbd ebc7 97bd b316 dabb
000000c0: d253 aa3d 7e5d 4dbe 8bf8 70bd 4297 b73e
000000d0: 0431 833e 5f07 2dbe 1bff d53e cc9d a3be
000000e0: 8318 a33e 2208 ca3e ceff c03d 2843 303b
000000f0: ef30 9e3e aaeb d4bc 3997 ab3e 76c0 a63e
00000100: 5a76 39be 4241 12be 97fe bf3d 6eb6 183e
00000110: 02fb d2bd 80d8 c43d 3c13 8ebe f715 213e
00000120: 01e5 b83e 55af 293e 1573 4cbe 3ce8 03be
00000130: a363 053d 343e 053e 797b 863e 6779 85be
00000140: 58a8 8a3d 6c5a 983e e020 4f3c 712b 303d
00000150: 6706 513e 00a3 253e 5265 51be c200 ac3e
00000160: 27b9 cdbd 481a 3dba 2cc8 7d3c adef e73c
00000170: 2882 36bc f8b6 583d 04e2 8cbd 2c65 c93e
00000180: 6fa0 883e 3ec1 3ebe a2be 833c c417 7f3e
00000190: 7096 323e ef32 8c3e 11db ce3e a5e9 953d
000001a0: 6626 11be f152 263e cc69 0abe 615a ab3e
000001b0: 1542 ce3e c8b9 933d acb5 413e f059 ae3d
000001c0: fc91 8b3e db1a 8abd 9271 d73e 9a15 ffbd
000001d0: 478d c2bd c100 a23d a84f 553e da51 313b
000001e0: 8db5 92bd 6197 0ebe 00dd b53e 4880 a13e
000001f0: 72f0 353e e867 e93b 6414 de3e 94b5 a4bd
00000200: 4847 983e 4c79 6dbb 9827 203e 2824 9d3e
00000210: e5e4 b03e 2cca e03d 2cc4 60be baee a43d
00000220: 9a5e 32bd 9a71 5dbc 330c 463e 3002 95bd
00000230: bfaa 8c3e 50d0 923e 0fcb 88be 2d66 a63e
00000240: 5d63 95bd 0c5e 6e3e 3815 b2bd 1170 88bd
00000250: 4167 073b e7ef 403e 16e2 c3bd 75a9 a63e
00000260: 508b fcbd 20ef 8abd 4aab 1f3e ee0d 1a3d
00000270: dd13 4d3e 9dda 773e bd99 943e 164d 483d
00000280: 98f4 5f3e 5433 063e 2447 5cbe 88f0 4abe
00000290: 6f1d ecbd 65fd 813d 0530 a03e 7c6b c2bd
000002a0: 81a2 6cbd 1634 0ebe bf83 983e 1887 d43e
000002b0: 3294 3abe e3c2 f6bd aa33 033d 2ed0 153c
000002c0: 66e5 fb3d 3ca7 b03e bdda 5bbe cdb4 3e3e
000002d0: e36b 17be fd77 923e 216e 3fbc ad96 f3bc
000002e0: b58b 123a 4434 6a3e bbfc 213e fe3d 373d
000002f0: d162 20bd 69ee 023d a001 7cbd 5791 823e
00000300: 9272 5cbe 9b23 18be ab2f 27be 2a2f 1f3e
00000310: 96fd 3ebe 3075 bd3c c0f6 d9bc e47f 21be
00000320: 6a5f d3bd b4cf 02be 9878 82be 0a5f 57be
00000330: ee3c a83e 0d8e 63bd 46b2 923e ad42 063e
00000340: 463f 40be 824a 32be 8114 00be c0e1 e33d
00000350: 689a 9b3e 09ec 87bb eea6 7fbe 6a8f 2d3e
00000360: eb9c 2f3e 6fd2 643e b7e0 913d 558f dcbd
00000370: daae 24be 4e19 2fbe ebb3 80bb 9a21 b53e
00000380: 3cea a33e dee8 debd c2b9 c83d b33d dfbd
00000390: 481d e6bd 384b 4ebc f244 a6bc 77c4 bd3e
000003a0: 8a3f 65be 6be4 d83d 5b46 893e 9699 e23d
000003b0: bd28 b93e 0d69 ac3d ae79 033e 19d3 2ebe
000003c0: 3849 44be e855 1f3e 92db 50be bafa f7bd
000003d0: 9036 4fbe d087 b0bc 0cb7 a2bd 942b 6bbe
000003e0: 4185 03be 0e07 353e 0c87 973d e4cc 7abd
000003f0: 7b9f 863e 678c 3abd 4505 3e3e a647 32be
-0.2780688 0.06491609 0.12547982 0.12321815 0.23774697 -0.29827324 -0.011671163 0.26294884
-0.06068615 -0.20015523 0.26782647 -0.11478948 -0.1505525 0.08164079 0.009641213 0.05580274
0.18875626 0.02670288 0.08461012 -0.15583703 0.14844471 0.13794334 -0.16615832 -0.23921874
0.40144506 0.3317814 0.041419093 0.24756089 0.004732033 -0.082933 0.3650643 0.22413708
0.12386986 0.054543007 0.3060949 0.34903082 0.21330632 -0.0013649659 -0.14272887 0.2626321
-0.046711523 -0.20066993 0.13515103 -0.03594364 0.26466134 -0.07626495 -0.07411178 -0.006655538
0.08316769 -0.20055196 -0.05883078 0.35857588 0.25623333 -0.16897343 0.41796193 -0.31956327
0.31854638 0.3945933 0.09423791 0.0026895497 0.30896708 -0.02599128 0.3351381 0.3256871
-0.18111554 -0.14282706 0.09374731 0.14913341 -0.10301782 0.096116066 -0.2774905 0.15731035
0.36112216 0.1657079 -0.19965775 -0.12881559 0.032565724 0.1301201 0.26266077 -0.26069185
0.0677039 0.29756486 0.012642115 0.04301018 0.20412599 0.16175461 -0.20448807 0.33594328
-0.10045081 -0.0007213694 0.015489619 0.028312529 -0.01113943 0.052908868 -0.068790466 0.39335
0.266849 -0.18628404 0.016082112 0.2491141 0.174402 0.2738261 0.4040151 0.07319955
-0.14174804 0.16242577 -0.13516921 0.3346739 0.40284792 0.07213169 0.18916959 0.08513248
0.27259815 -0.067434035 0.42078835 -0.12455292 -0.09499603 0.079103 0.20831168 0.0027056844
-0.07163534 -0.13924934 0.35520172 0.31543183 0.17767504 0.0071229823 0.43374932 -0.08042446
0.29741883 -0.0036235629 0.15640104 0.30691648 0.34549633 0.10976061 -0.21949834 0.08053346
-0.04354725 -0.013515854 0.19340591 -0.07275808 0.2747402 0.28674555 -0.2671742 0.3249983
-0.07294343 0.23278064 -0.086954534 -0.06662 0.002066091 0.18841515 -0.09564607 0.3255116
-0.12331259 -0.06783891 0.15592685 0.03761094 0.20027108 0.24204488 0.29023543 0.04890164
0.21870649 0.13105518 -0.21511513 -0.19818318 -0.115290515 0.06347159 0.31286636 -0.09493157
-0.057772163 -0.13887057 0.29788014 0.41509318 -0.18220595 -0.120488904 0.032031693 0.009143872
0.12299614 0.3450259 -0.21470161 0.18623658 -0.1478725 0.2860717 -0.011683972 -0.029734934
0.0005590276 0.228715 0.15819065 0.044736855 -0.03915674 0.031965647 -0.061524987 0.2550151
-0.2152808 -0.14857332 -0.16326778 0.15545335 -0.18651423 0.023127168 -0.026606917 -0.15771443
-0.10320933 -0.12774545 -0.2548263 -0.21032348 0.32858986 -0.055555392 0.28651637 0.13111372
-0.18774137 -0.17411235 -0.12507822 0.11127043 0.3039124 -0.0041480106 -0.24966022 0.1694924
0.17149703 0.22345899 0.07122939 -0.10769526 -0.16082326 -0.17099497 -0.003927698 0.35377198
0.32014644 -0.1088426 0.098010555 -0.1090044 -0.11236054 -0.012591176 -0.020296548 0.37063953
-0.2238752 0.10590442 0.2681149 0.110644504 0.36163893 0.08418474 0.12839386 -0.17072715
-0.19168556 0.15560114 -0.2039626 -0.12108369 -0.20235658 -0.021549135 -0.0794507 -0.22965842
-0.12843801 0.17678472 0.07398805 -0.061230555 0.2629355 -0.045544054 0.18556698 -0.17410144

bias f4 [32]
00000000: 5f8a 323e c4d7 adbd b6b7 eb3d 4081 6d3e
00000010: 85fc bc3e 8f3e 253d 0b09 483e 0022 06be
00000020: 46e2 3d3d 408d 583e 3497 6e3d 4fd7 003e
00000030: 519f 033c 7a56 3ebe adb1 b03e 3dbc b0bd
00000040: 820d f5bd c7b5 14bd 4a53 1cbe 8f7c c43d
00000050: 303d 12bd 92fc 3d3e 67e4 dabd bf1c 813d
00000060: c15d 3b3d 19de 11bd 0b6c d4bd 9f19 62be
00000070: 7c50 463e fe3c 723d fb4e 033e d006 b03e
0.17435597 -0.0848842 0.115096495 0.23193836 0.36911407 0.040342864 0.195347 -0.13098907
0.04635837 0.21147633 0.058249667 0.12582134 0.008033589 -0.18587676 0.34510556 -0.086296536
-0.11965467 -0.03630617 -0.15266147 0.0959407 -0.035702884 0.18553379 -0.106880955 0.06304311
0.045743708 -0.0356122 -0.1037217 -0.22080086 0.1936664 0.059140198 0.12823097 0.34380198

weight f4 [32, 32]
00000000: 3782 943d 7142 7c3c 99a8 013d ee6d 143d
00000010: 67e6 09bb 088f 533e b239 b63d 79f4 7e3e
00000020: 75b9 bf3d 8603 98bd fd84 1c3e 43c2 133a
00000030: 2e25 ec3d b3c4 953d 9546 873e d16b 4f3b
00000040: 6c8e f1bd 96f9 2b3c ba19 bbbd 7546 e43d
00000050: 65b6 283e bed9 413e 84c7 26bd ac41 39bd
00000060: 7850 babd 1031 c73c 98b8 1f3c afd8 f03d
00000070: 6b0d 5f3e d6b9 293e 898c 083e c156 3b3e
00000080: 1bae ff3c f244 303b b50c d33c bb50 103e
00000090: 6c48 ad3d d7c3 663e 3e79 213e 2c3e 2f3d
000000a0: 065d 2a3d 2033 b33d b942 8a3d 11aa 393e
000000b0: 86a1 6dbe d386 82be 9a1c 953d ec05 1dbd
000000c0: ff12 1cbe 16ef 0a3e 6fc6 5c3d 4cac 8fbd
000000d0: 38db 8cbd ddcf be3d c05a c43d 82d0 6ebc
000000e0: 40f4 afbd 8644 103e 37c4 163e 034b 78bd
000000f0: 5765 8e3d 42c7 90bd e50d fb3d 7400 663d
00000100: ac04 c9bc a7d3 42bd 16d5 693d 1927 21bd
00000110: 44bb aa3d 5a79 433e 29c3 683e 1d6f 39bd
00000120: 46e4 903d 2d86 1b3e 7eba fe3d 5845 7ebd
00000130: 96b8 2d3c 14a4 01be 0506 0d3e ad30 3ebc
00000140: 58c1 a33c 6959 633e c4f9 68be 070b d8bc
00000150: 4028 763b 2e51 073c 8eb9 98bd 4508 233e
00000160: 5563 423d bf54 553e 3367 223d fbc0 dfbd
00000170: 8dae 093e 809a 2dbd ba6f 293e d9ae cd3d
00000180: e7ae 79bd bb57 87bd 7bc1 4bbd f828 6d3e
00000190: cd2e 093e dddd 873e b644 fd3c deda 013e
000001a0: 851c 883e 4fd8 ae3d 9120 c73d 6bac 143e
000001b0: 0f21 b8bd de9e 12be 22ce 2b3e 279e 893e
000001c0: c68e f43d a833 303e 73a1 7d3c 8077 33bd
000001d0: 4b75 0b3e 166a 193e c249 843d a25a 583e
000001e0: e49d 4ebc 2df8 0d3e 1579 7c3e 6227 4abb
000001f0: d6ae 463e 3f0c 473e 2d27 833b c8d7 283e
00000200: a9fb a7bd 2fb3 b5bd cce4 873e 93ce 0f3d
00000210: 8610 a93d 77b3 253e 1e00 333e 49fb 403e
00000220: a9a2 8b3c 776a 223d d639 3f3e 57c6 c73d
00000230: 79a8 6fbd 0570 37be 00bd cd3b d051 373e
00000240: c0f0 033c 551e 2a3c ddc3 adbd 11b7 aabd
00000250: 008f e9bc a49a 953c de59 583e 118f 6b3e
00000260: 519e b8bc 82c3 8bbd 9675 9b3d b063 21be
00000270: d9f5 59bd 721c 323e 81b5 833d 8000 b23d
00000280: d54a e439 b133 52be 7ea4 44bd 9a14 d3bc
00000290: f53f 983d 059f 873d 9682 66be 22d7 c6bd
000002a0: 4d02 76bd 8d84 a73d a47c 7fbe 7c2b 053d
000002b0: 769a 1fbe cdd1 61be 51ae 1ebd 1378 113c
000002c0: 766f 983d 841d b1bd 96ba 113d 90b7 5ebd
000002d0: 6088 5cbc a8d5 60be eb5f 82be 4828 2f3d
000002e0: 0ee8 293d e688 15be 32e5 45be d682 60be
000002f0: 6c9b febd dbef a5bc a8d7 143d 3643 62bc
00000300: 1aed 40be 06f9 bf3d aeac 86be 8700 68bd
00000310: 661d 78be bfe5 40be 9dcc 95be 8789 d5bc
00000320: 2d63 1ebe 0733 15bd 9db6 2cbe 098b 973c
00000330: 0b57 8d3d e489 49bc 998e 91be 8f8b c8bd
00000340: 98ba bbbc c4cb f8bd e4a8 f6bd 949d 2ebd
00000350: d925 0b3e 3c27 d53a 1390 91bd b733 12be
00000360: b150 06bd 6834 773c 1ddf 9cbc 12d5 a83d
00000370: d9e8 17be b0a4 f7bd af33 8fbe 9a40 46be
00000380: 0319 2a3e 9ebc 603d f7a2 3c3e 612a 2e3d
00000390: d9e5 c73d 73e8 513e 3927 113e 7cf2 dd3d
000003a0: 87e9 993e 1f09 353e c9c9 7dbc 9d2a e3bc
000003b0: 1e5b 2fbe d1e9 16be 6ed1 0c3e 9d9c 4c3d
000003c0: b8b0 c2bd e3d7 8a3e 015b ddbc 23e6 493d
000003d0: 8c58 1bbe 3a0f 3f3e ee4f 1b3e fd2f 893d
000003e0: 00eb 89bd 5ecd eb3c e4d2 853e aca0 13bc
000003f0: 96f7 d03d 14f9 1e3e cdd3 ea3d 7192 e13d
0.07251399 0.0153967 0.031654928 0.03623765 -0.0021041872 0.20660031 0.08897723 0.24897946
0.09361545 -0.07422547 0.15285106 0.0005636552 0.11530529 0.07312908 0.26421037 0.0031649957
-0.11794743 0.010496518 -0.09135766 0.11146251 0.16475828 0.18930718 -0.040717617 -0.045228645
-0.090973794 0.024315387 0.0097486 0.11760079 0.21782462 0.16574797 0.1333486 0.18294813
0.03121095 0.0026896563 0.025762895 0.14093296 0.08461079 0.22535644 0.15768906 0.0427839
0.04159262 0.08749986 0.067510076 0.18131281 -0.23206148 -0.25493488 0.07280846 -0.038335726
-0.15241621 0.13567767 0.05390018 -0.07015285 -0.0687775 0.093169905 0.09587622 -0.014576079
-0.08591509 0.1408864 0.14723288 -0.06061841 0.06952923 -0.070692554 0.122585095 0.056152776
-0.02453836 -0.04756513 0.05708798 -0.039343927 0.08336499 0.1908926 0.22730698 -0.04527198
0.0707479 0.15187903 0.12437914 -0.06207785 0.010603091 -0.12660247 0.13771828 -0.011608285
0.019989654 0.22202076 -0.22751528 -0.026372446 0.0037560612 0.008259101 -0.07457267 0.15921123
0.04745801 0.2083311 0.0396492 -0.1092548 0.13445492 -0.04238367 0.16546527 0.10043115
-0.060957815 -0.0660853 -0.049745064 0.2316016 0.1339676 0.26536456 0.030916553 0.12681147
0.2658426 0.08537351 0.097230084 0.14518897 -0.089906804 -0.14318416 0.16777852 0.26878473
0.11941294 0.17207205 0.015480387 -0.043815136 0.13618962 0.14981875 0.06459381 0.21128324
-0.012610886 0.13864203 0.24655564 -0.0030846228 0.19402632 0.19438265 0.004002473 0.16488564
-0.08202297 -0.08872067 0.26541746 0.035109114 0.08255105 0.16181742 0.17480513 0.18845858
0.017045336 0.039652314 0.18674406 0.09754627 -0.058510277 -0.17913826 0.006278634 0.17902303
0.008053005 0.010383208 -0.084846236 -0.083356984 -0.02851057 0.018262215 0.21128032 0.23003794
-0.022536429 -0.068243995 0.07590787 -0.15760684 -0.053212974 0.17393664 0.064311035 0.086915016
0.00043543303 -0.20527531 -0.048008434 -0.02576666 0.07434074 0.066221274 -0.22510752 -0.09709002
-0.060060788 0.08179579 -0.2494989 0.032512173 -0.15586266 -0.22052689 -0.03874046 0.008878726
0.074431345 -0.08648208 0.035578333 -0.054374278 -0.013460249 -0.21956503 -0.25463805 0.042763025
0.04148107 -0.14603004 -0.19325712 -0.2192491 -0.12431988 -0.020255974 0.03633848 -0.01380997
-0.18840447 0.09373669 -0.2630362 -0.056641128 -0.24229965 -0.18837641 -0.2925767 -0.026066555
-0.1546752 -0.036425617 -0.16866536 0.018498914 0.06901368 -0.012300942 -0.28429106 -0.09792244
-0.022916123 -0.1214824 -0.12043932 -0.042630747 0.13588656 0.0016262303 -0.07107558 -0.1427754
-0.032791797 0.015088178 -0.019149357 0.08243765 -0.14834918 -0.120919585 -0.2796912 -0.19360581
0.16611104 0.05486738 0.18421541 0.042520884 0.09760637 0.20498829 0.14175119 0.10837266
0.3006098 0.1767926 -0.015490004 -0.02773028 -0.17124602 -0.14737631 0.13751766 0.049954046
-0.09506363 0.27117833 -0.027020933 0.04929174 -0.15170497 0.18658152 0.1516721 0.06698606
-0.06734276 0.02878445 0.2613746 -0.009010475 0.10203473 0.15524703 0.11466179 0.110142596

bias f4 [32]
00000000: c479 683e bcdb 783e 50af 303e f868 1a3e
00000010: b1ec 123e 2a1a 89bd 5dbe 2ebd 63cd a63d
00000020: ab44 39be 4635 8b3e ef7d 383e 9207 8a3d
00000030: 3b9a 85bd a53a ccbc efe7 c7bd 26db 9abd
00000040: a007 62be 5930 83bd 6e1f c23d f9ea 09be
00000050: 2f9f 9f3c 1a66 873e 3a4c 6a3e a1ce f7bd
00000060: 65a7 d03d 4f73 c5bc a16f 433d 8cd8 b7bd
00000070: f55b 693e 483e 50be 13c3 683e 71d8 e23a
0.227027 0.24302572 0.17254376 0.15079105 0.14348103 -0.066944435 -0.042662013 0.08144643
-0.18092601 0.27189082 0.1801679 0.06739725 -0.06523558 -0.024930308 -0.09761035 -0.075613305
-0.22073221 -0.06405706 0.09478651 -0.13468541 0.019485084 0.26445085 0.2288064 -0.12099958
0.10188178 -0.024102835 0.04771388 -0.0897685 0.22788985 -0.20336258 0.22730665 0.0017306936

weight f4 [6, 32]
00000000: 5327 2a3e 758d 583e 3497 173e 3cb2 473e
00000010: 4a70 1d3e 3473 aa3d eea4 48be 59d6 263e
00000020: 9d44 f8bd 8365 803e 1455 2a3e 1b4e be3d
00000030: 18ce 14be 8d7d 3ebe dc6b 05be be0b 05be
00000040: d070 88be 4c3c 5abe 064c 8b3d 19e2 9cba
00000050: 18b0 77be c909 523e caea e13d 3a77 0bbe
00000060: 385b e23d dce6 763e d10c 95bc ebcc 803e
00000070: 330e 853e 1aad 8dbe ab54 923d 45a6 063e
00000080: 8520 613e 906a 4b3d dfae 173e 85e1 203e
00000090: 069b 5e3e 80af 32be 2db0 54be 556b ac3d
000000a0: 93b6 04bd ba80 42bd 4f0e d23d 2f7c 803e
000000b0: fa96 353e a14c 67be edff a4bd 86d0 33be
000000c0: 3cd1 003c 9fca 73bd e505 98bd f8f7 e4bc
000000d0: 2753 19be 3c4f 633e 4fae 533e c0e5 ddbd
000000e0: a4d0 433c 6d41 43bd 5052 4bbe fcd9 223e
000000f0: 3d38 a93d 2e48 5dbe 2379 1e3e ee9b ae3d
00000100: 25e1 a7bb cf47 343d 563f 923d 0943 563e
00000110: aff3 ca3d 33a4 a1bd c0df 68be 0023 043d
00000120: cbb5 1dbe 99a7 af3d f828 633e fc06 3a3d
00000130: 03d8 c3bd 510b 21be 5ed5 33be 0f5b b1bd
00000140: cc47 1abd b90a 42be c897 353e ed78 71be
00000150: c079 cabd f94d 3cbd aceb 6b3e b06e 19bd
00000160: f0af 4b3e ceef 713e 1e66 6cbe e709 cebb
00000170: 552c 953d 90fe 8bbd 0c52 4e3e 4e23 763e
00000180: 847f b93d 923c 183e 8c7e 97bd 0fc4 df3d
00000190: 170f 1a3e 0a13 83bd a67d 90be f285 fd3d
000001a0: 7be5 fabc 6b99 433e 34b7 413c 5181 3d3d
000001b0: 5c6f aa3d 609e 473d 5453 73be c01b 1cbe
000001c0: 036a 533d 8eac 53be eb5d 733e 3dec 56be
000001d0: a743 41be 8d90 da3d 5c1b 72bc 02dd 41be
000001e0: d3f0 263e 43fa 573e 396d 82be 2de3 c3bd
000001f0: 8b23 91bd 63f8 883d bd08 c23d 3218 ff3b
00000200: 4baa ce3b 05f2 84bd 4633 f63d 6405 583e
00000210: 501f 96bd d204 cfbd 39d0 afbd 159c 373e
00000220: 2753 47be d8f3 5d3e 0631 963d 5dd1 93bd
00000230: 2f50 083d 5817 b2bd 8156 8bbd 6ef7 d6bd
00000240: 3d46 953d f3a8 c4bd eb75 7d3d be9d 54bd
00000250: f80d 23bd 217d 073e ce94 8f3e 543a 1e3d
00000260: 7809 013e 8977 a53d 1987 80be 15c2 ae3d
00000270: 0bb1 483d ea16 8dbd cf19 723e 7a5b 2c3e
00000280: 2864 db3c 01bb a63b b2e5 2e3e 14f8 7f3d
00000290: 6175 6b3e 5492 4dbe cf9d 5abe 6b42 f83d
000002a0: e4ee 4f3d 9f04 883e 6bd1 4b3e bf4c 853e
000002b0: 678a c13c 0c9a 86bd eb33 d23c f6e7 d43c
000002c0: e3ff 2ebe 5f89 403d 1af0 753e 1329 82be
000002d0: 799d 8f3c 3b9a 5f3c 9aa6 67bd 0309 43be
000002e0: d745 393e 6179 7c3e a1c2 0fbe 25b5 88bd
000002f0: 5ada 223e 8132 60be 78f4 473e d976 3e3e
0.16616563 0.21147712 0.14803773 0.19501585 0.15374866 0.083227545 -0.19594166 0.16292705
-0.12122462 0.25077447 0.16634017 0.09292241 -0.14531744 -0.18602581 -0.13029426 -0.1299276
-0.2664857 -0.21312064 0.0680161 -0.0011969238 -0.24188268 0.20511545 0.110311106 -0.136197
0.11052555 0.24111503 -0.018194588 0.2515634 0.25987396 -0.2767113 0.071450554 0.13149364
0.21985061 0.049662173 0.14812802 0.15711029 0.21738824 -0.1744976 -0.2077033 0.084189095
-0.03240068 -0.047486044 0.102566354 0.25094745 0.17733374 -0.22587825 -0.080566265 -0.17560014
0.007862385 -0.059519406 -0.07422999 -0.027950272 -0.14973126 0.22198194 0.20671962 -0.10834837
0.011951599 -0.047669817 -0.19855618 0.15903467 0.0826268 -0.21609566 0.15475897 0.08525835
-0.005123275 0.044013795 0.071409866 0.2092401 0.0990976 -0.07892647 -0.22741604 0.03225994
-0.1540138 0.085768886 0.22183597 0.045416817 -0.09562685 -0.15726973 -0.17561862 -0.08659946
-0.037666127 -0.18949403 0.17733681 -0.23581286 -0.09886503 -0.045972798 0.2303912 -0.037459075
0.19891334 0.23626634 -0.2308583 -0.0062878015 0.07283846 -0.06835663 0.20148486 0.24036905
0.09057525 0.14866856 -0.07397184 0.10926067 0.15044819 -0.06400116 -0.28220862 0.12379064
-0.030627003 0.19101493 0.011823464 0.046265904 0.08322021 0.048735023 -0.23762256 -0.15244961
0.051614773 -0.20671293 0.23766296 -0.20988555 -0.18873464 0.10672102 -0.014777031 -0.18931964
0.16302805 0.21091561 -0.25473955 -0.09564815 -0.070868574 0.06688001 0.09474323 0.0077848667
0.0063069216 -0.06491474 0.120214984 0.21095806 -0.07330191 -0.10108341 -0.08584637 0.17930634
-0.19465314 0.2167505 0.07333569 -0.07217667 0.033279594 -0.08695859 -0.06803609 -0.10496412
0.072887875 -0.09602537 0.061880033 -0.051908247 -0.039808244 0.13231327 0.28043216 0.038629845
0.12601268 0.0807944 -0.2510307 0.08533112 0.048996966 -0.06889136 0.23642658 0.1683177
0.026781157 0.0050882106 0.1707981 0.062492445 0.22993995 -0.20075351 -0.21349262 0.12122043
0.050764933 0.26566026 0.19904105 0.26035115 0.023625566 -0.06572351 0.025659522 0.025989514
-0.170898 0.047006007 0.24017373 -0.25421962 0.017531144 0.013647611 -0.056555368 -0.19046406
0.18093048 0.24655677 -0.14039089 -0.066751756 0.15903607 -0.21894266 0.19526851 0.18600024

bias f4 [6]
00000000: abea 72bd 7337 143e ff58 173e 18f0 98bc
00000010: 82d5 553d 1915 c4bd
-0.059305828 0.14474277 0.14780043 -0.018669173 0.05220557 -0.095743366
