model/rlbd_discrete.pt (torch_old, 285276 bytes, 6 tensors)

weight f4 [256, 10]
00000000: aec0 9ebe 660b 14be d72d 913d 41d7 ddbd
00000010: f4d5 57be 90df b3be 6d30 92bc ec2a 95bb
00000020: 3181 e4bc a7f9 52be 8414 ba3d 496c 953d
00000030: 734c 88be 80df b0be 13b4 4ebe 6607 98be
00000040: c8d0 b3be b718 223d 2f70 ec3d a8f8 87be
00000050: d1d2 9d3d a35d 383e 15a4 243f f80a ed3c
00000060: 1435 b73e ea79 87bd 3790 793e 3b27 4f3d
00000070: 3050 eb3e c085 843e de61 dc3d 2f7d 9dbd
00000080: a4c8 90be 723a 8abe 859f fbbd 7629 26be
00000090: c010 cdbe c466 a0bd b2cf b0bd 7ffa be3d
000000a0: 3f12 87bd 7421 00be e673 8fbc f91c 83be
000000b0: af59 303d 9d2e 9fbd 82c0 a8be e19b 63bc
000000c0: e38c 0ebd b0cf af3d f6be 3cbe 47d5 a0bd
000000d0: 953c 03be ae69 493d acc3 323d b41c 923d
000000e0: 494e 41be 70cb e8be c653 debe 00c6 bfbe
000000f0: 33f9 dbbe af17 5dbd eae3 22be 5a9a 77be
00000100: 6fd9 06bf 100f aebd 3d0a 6b3e f352 ce3d
00000110: 039e 933e bd4e d7be 1ad7 003e e876 4e3e
00000120: 49d4 003f 84d0 e43c b00a dd3e fad4 133d
00000130: e4d6 293f faa6 093e d579 0a3f dab4 61be
00000140: e695 4fbf f85d a63d 9a49 40bf b967 85be
00000150: 8a72 acbe 8749 9dbe 53d8 2abf fc6c 21bf
00000160: 031f 22bf 1226 673d cb8a 223e 1e4b a1be
00000170: 2a1c 11be 25e0 a3be aced cfbe 9d03 f83d
00000180: 03fb af3d 41ed 11be 3bce 8bbe 4249 d7be
00000190: bb15 903e 6bb5 b03d 0435 e53e aacd 8e3e
000001a0: eb96 6f3e fd7a f63d 2b5e 293f 5f26 383d
000001b0: 9142 0e3f 1060 fcbe e032 89be a1c1 ebbd
000001c0: 61eb d0bd a0a9 f23d d04e 56be 4c72 8ebe
000001d0: cc50 c33c eb5c c4bc fe15 06be 1ee5 40be
000001e0: 0e66 223d f7f3 0e3e f68d e33d 0161 9abe
000001f0: f0ed f2bd 2577 96be df7b 3cbe 4302 cdbd
00000200: ea5e 95be 5f56 8dbd ee90 eebe 306a d6bd
00000210: 328d e4be d8f9 f4be 9895 e8be 8e58 8f3d
00000220: b84c 663d 5038 b73d 59d5 9c3e 798a 85be
00000230: 5eaa 73be e5a7 7f3e 1d50 a2bd 978f 473d
00000240: d32c f03e 864a 783e 4ab2 f23e cd57 31be
00000250: db43 243e 96bf 783d ea9f aa3e 9394 e93c
00000260: 1564 213f 8cef e33e 66c3 fd3d cdd3 debe
00000270: dc3c cc3d 1974 d93e 71dc e23e 1f50 d0bd
00000280: 3a85 07be fdb3 0d3e 26ed 92be e0fc 7dbe
00000290: 4c33 d6be 6a68 54be 5117 1ebd 1c93 6dbe
000002a0: e4f6 c23d 5198 0ebd 9e30 003e c48b 16bd
000002b0: 1e29 f63d 7b7c 16be 92a5 9c3e c208 843e
000002c0: 56d5 e33e 3437 fb3d a976 aa3e 08b5 f1be
000002d0: 57dd 8abe 4817 693d d2ec 2bbe 33e6 58be
000002e0: dede 9b3d d857 5ebe 5bab 2dbd 6f07 91be
000002f0: 626c 6a3e c373 3bbe 6452 373d 3877 2b3d
00000300: 9550 54be 9f14 d5be b63f fabd e7a1 40bd
00000310: 1075 67bd aa9a abbe 55b1 06bd 691e e43b
00000320: ba68 06bf 6838 a9be 5e0c cbbe ea51 89be
00000330: fcb1 cabe 6c22 9c3d 0a8f b43c 2476 ddbe
00000340: ee9b 28be 649c 75be ac39 a53d 7a57 283d
00000350: 90d4 7bbe 2f11 a1be 11c2 d4bd 110e 11be
00000360: 1068 0d3e 5522 e63c 475f a8be a76d a9bc
00000370: 52fb 47bd 56d4 c8be 2b1b 303e fd84 283d
00000380: ce63 9ebe 0600 c2bd d4c7 093c 24f4 19be
00000390: 094a bf3d 4a0e 373c 26cc d8bc 3006 753e
000003a0: f519 5e3e 05c3 d93c 335a 0d3f ff44 943d
000003b0: 5997 153f 4e09 9dbd 8892 253e c6a6 333e
000003c0: 6a00 8a3e 9d16 2c3d 6382 203f 65bb 453d
000003d0: 836a ab3e 82b4 5b3d 9018 243f 512c ffbd
000003e0: 8d32 5a3f fd00 8d3d 54b9 ebbc 0f13 ad3e
000003f0: 0a25 183f ae08 fe3d e121 eb3d a60f 3ebc
-0.31006378 -0.14457473 0.070888214 -0.10832072 -0.2107771 -0.35131502 -0.017845357 -0.004552236
-0.027893635 -0.20603047 0.09085944 0.072960444 -0.26620826 -0.34545517 -0.2018588 -0.29693145
-0.35120225 0.03957435 0.11544835 -0.26556897 0.07706226 0.1800447 0.6431287 0.028935894
0.35782683 -0.0661505 0.2437142 0.050574522 0.45959616 0.25883293 0.10760854 -0.076898925
-0.28278077 -0.26997715 -0.12286285 -0.16226754 -0.40051842 -0.07832101 -0.08633365 0.09325122
-0.06595277 -0.12512761 -0.01751132 -0.25608042 0.04305428 -0.07772563 -0.32959372 -0.013892145
-0.03480233 0.08584535 -0.18432221 -0.078531794 -0.12816079 0.04917305 0.04364364 0.07134381
-0.1887752 -0.4546771 -0.4342329 -0.3745575 -0.4296356 -0.053977665 -0.15907255 -0.24179974
-0.5267553 -0.08498967 0.22953124 0.10074415 0.2883149 -0.4205226 0.12582055 0.20162547
0.5032392 0.02793146 0.43172216 0.036091782 0.6634352 0.13442603 0.5409215 -0.22041646
-0.810881 0.08123392 -0.7511231 -0.26055697 -0.33681136 -0.3072016 -0.66736335 -0.6305692
-0.6332857 0.05643279 0.15873258 -0.31502622 -0.141709 -0.32006946 -0.40611017 0.12110064
0.085927986 -0.14250661 -0.2730578 -0.4204808 0.2814158 0.08628353 0.4476701 0.27891284
0.23397414 0.12035177 0.66159314 0.04495847 0.5557032 -0.4929204 -0.26796627 -0.11511541
-0.10201145 0.1184876 -0.20928502 -0.27821577 0.023842238 -0.023970088 -0.13094327 -0.18837401
0.03964811 0.13960253 0.11111061 -0.30152133 -0.11861789 -0.29387775 -0.18406628 -0.10010197
-0.29173976 -0.069012396 -0.46594948 -0.104694724 -0.44638973 -0.47846866 -0.4542663 0.06999312
0.05622551 0.08946288 0.3063152 -0.2608221 -0.23795459 0.2496639 -0.07925437 0.048720922
0.46909198 0.24247178 0.4740165 -0.1731865 0.1604151 0.060729586 0.3332513 0.028513229
0.6304334 0.44518697 0.12390785 -0.43520966 0.099725455 0.42471388 0.44308808 -0.10171532
-0.13234416 0.13838191 -0.28696555 -0.24803495 -0.4183601 -0.20742956 -0.038596455 -0.23200649
0.09519747 -0.03481323 0.12518546 -0.036754385 0.12019561 -0.14695923 0.3059507 0.25787932
0.444987 0.122663885 0.33293656 -0.47208428 -0.27121994 0.05690697 -0.16789559 -0.21181564
0.07610868 -0.21713197 -0.042399745 -0.28325984 0.22892907 -0.18305878 0.04475631 0.041861743
-0.20733865 -0.41617295 -0.12219183 -0.047029402 -0.056508124 -0.33516437 -0.03288396 0.006961633
-0.5250355 -0.33050847 -0.39657873 -0.26820308 -0.39588916 0.07623753 0.022040863 -0.43254197
-0.16465732 -0.2398544 0.08067641 0.04109905 -0.24592805 -0.31458423 -0.10388578 -0.14165522
0.13809228 0.028092543 -0.3288519 -0.02068217 -0.048823662 -0.392245 0.17197864 0.041142453
-0.3093552 -0.09472661 0.008409459 -0.15034539 0.09340293 0.01117284 -0.026464533 0.23928142
0.2168959 0.02658225 0.5521576 0.072397225 0.58434063 -0.0766779 0.16169178 0.17544088
0.2695344 0.042013753 0.62698954 0.048274416 0.334797 0.053638943 0.6409998 -0.124596246
0.85233384 0.06884954 -0.028774895 0.33803603 0.5943152 0.12403999 0.11481071 -0.011600411

bias f4 [256]
00000000: 4644 87be ae03 4ebd e5ec 723f f671 013d
00000010: 51cf abbe e49f bdbe 8f0e 7ebe ceb3 3d3f
00000020: b7a7 2e3f a78a debe 2a90 7f3f 7b4d 5cbd
00000030: a9ea d9be 32f8 94bc 4140 573f e3d1 633e
00000040: 80f2 a6be 8b61 2f3f 0a62 a7be 6403 34bd
00000050: 5d36 3a3e 4b44 18bc 26b9 a6bd 676c 383f
00000060: 80c3 3b3f ae93 603f 771a b63e f046 12bf
00000070: 394e 633e c2b0 2dbe de79 bebe ca69 35be
00000080: 60c7 b53e f620 c73e 9de3 c8be 8d08 8a3c
00000090: d86a 923e fd21 07be 123a 403b 06e8 17be
000000a0: 17be bfbd dc5e bcbe cbeb f33d 73f8 2d3f
000000b0: 4cab 5e3f ea27 cf3d 96ac 8dbe ab61 edbe
000000c0: e845 0a3f 1ea5 cbbd ea40 383f da8c 8c3f
000000d0: 6e4c 30bd 74da bdbd dce1 65be e32d 833f
000000e0: 3fd5 9b3d 08cd ccbe 974c b93e 7028 0a3e
000000f0: 15be 403e 989b 463f 1896 99be 9093 be3d
00000100: 1bc5 813e 1d5f 923d aa54 9dbe f9d3 b03e
00000110: 8ac8 d23e 9232 91be 52ab 2a3f 1a64 5ebe
00000120: 632b 043d 8535 c83e 9621 86be 47e9 4b3f
00000130: b182 3d3f 8c9c 273f c5f4 57be bb48 03be
00000140: 49cc a43e 6367 1c3e a3b4 4cbe fe03 18be
00000150: 0d5d 32be e403 093f 211c 653f fa71 76bd
00000160: d651 e53e 472f 7cbc d71b bfbe 663d c3be
00000170: d4c2 b0bc 3c91 84be f193 b2be b4df 323f
00000180: 36a0 933e bc68 773f c548 13be 9b1f 523f
00000190: 754a 7bbe c3e6 aabe e536 7bbe 348e 773e
000001a0: e2ae e53e 5672 bbbe ddce 3e3e 1783 e93d
000001b0: fd3b 623f ecf4 eabd 8376 d0be af94 b0be
000001c0: 232f c9bc fff3 45be 4917 7b3f 45b3 f93d
000001d0: b312 f4be be27 76be 5247 97be 9c47 a53e
000001e0: 8e46 4d3e cd2d ad3e f2d7 873f 65d4 123f
000001f0: 76d9 963d 5341 79be a7c6 31be 79b0 123e
00000200: 745a 4a3f c516 9bbe 740f a1be d934 443f
00000210: 8b8b b3be 29f9 5f3f a400 ab3e dab7 383f
00000220: 4280 653f deba d63d e957 ca3e 3800 8fbd
00000230: 1997 3ebe d9c9 5a3e 2b7d 483f cedf aabe
00000240: 1833 ebbd 39ad 8d3f 459f 833f 57bb e4bd
00000250: 60b5 8cbd 3573 1dbe d038 69be 6b1a c8be
00000260: 9b3c 61be 472d d43e 73fa 413f 2c29 c1bd
00000270: cb23 c53e 0e4c 293f cc46 a03d d953 14be
00000280: afc7 d6be 3e2c 0a3f f4b4 4bbe 696e f23d
00000290: 279e 06bc 822d 37bd 5019 7a3f c800 20be
000002a0: 5f49 543f 7ac9 a6be 8385 ce3d bcdd e13e
000002b0: b934 593f 5aed 8ebe 428d 7b3f 3f4d 22bd
000002c0: bcb4 303b bf39 2e3e 7058 033f f3dd 433e
000002d0: e10e 773f a579 823d 5236 9dbe bed5 fdbd
000002e0: d86f 383e 5b9f 87be 1e73 debc d294 c8be
000002f0: d7a6 9f3e 1eff 323e 9371 873c 0259 96be
00000300: dcd4 2fbe e34d 9abe 8592 2fbe f6fe 113d
00000310: 226b 423e 1c74 dd3e 8437 cfbe 4ac6 fdbe
00000320: 5b5a 6b3e b7c4 98be e12d e03e 4d54 b0be
00000330: cb5d 43be 5359 0ebe 9c4b 95be 8142 f83e
00000340: da25 51be 3c04 3a3f 4148 59be 62db 6d3f
00000350: 6519 54be d488 c93e 5426 ff3e cc81 0f3f
00000360: 4a2d f3bd e592 29bf 6928 1c3f f40e ba3e
00000370: 2e33 8e3c ee40 443f e6d5 f83d db2c 813e
00000380: b1d2 473f 3203 fe3e 4a31 323f 4ed0 60be
00000390: 986c cdbe 5cc4 88be 9326 633f 78f2 643f
000003a0: 5e5e babd a33c 74be fcaf f23e 02b9 9a3e
000003b0: 8ef0 78be d1fa 98be 1f01 d4be 8d96 43be
000003c0: 9358 90be b34f 9d3e 6362 d7be 026c 8bbe
000003d0: acc3 04be a148 08be 5f71 e3bd ce01 d2be
000003e0: 67ea 8e3e c126 3f3e 4357 bb3e 6406 213f
000003f0: e49e 213e 41c8 33bd 7d68 923e 75d1 cbbe
-0.26419276 -0.050296478 0.9489272 0.031602822 -0.33556607 -0.3703605 -0.24810241 0.74102485
0.6822466 -0.43465158 0.9982935 -0.05378483 -0.42561844 -0.018184755 0.8408242 0.22248034
-0.32606888 0.68508214 -0.32691985 -0.043948546 0.181848 -0.009293626 -0.08140783 0.7204041
0.73345184 0.8772534 0.35567066 -0.5713949 0.22197808 -0.16961959 -0.37202352 -0.17716137
0.35503674 0.38892335 -0.39236155 0.01684978 0.2859714 -0.13196559 0.0029331488 -0.14834604
-0.09362429 -0.36791122 0.11910208 0.6795723 0.8698013 0.10115035 -0.27670735 -0.46363577
0.5401292 -0.09943603 0.7197405 1.0980484 -0.04304164 -0.09270182 -0.2244944 1.0248379
0.07609033 -0.40000176 0.36191246 0.13491988 0.1882251 0.7758117 -0.29997325 0.09305489
0.25345692 0.07147048 -0.30728656 0.34536722 0.41168624 -0.28358895 0.66667664 -0.21717873
0.03226794 0.39103332 -0.261975 0.7965283 0.74027544 0.65473247 -0.21089466 -0.12820713
0.32187107 0.15273814 -0.19990782 -0.14845273 -0.17418309 0.5352156 0.89496046 -0.06016729
0.44788998 -0.015392131 -0.37325928 -0.3813278 -0.021577276 -0.25892055 -0.34878495 0.69872594
0.2883317 0.96644187 -0.14383228 0.82079476 -0.24540122 -0.33379182 -0.2453266 0.2417534
0.44859987 -0.3661067 0.186336 0.114019565 0.88372785 -0.114724964 -0.40715417 -0.34488437
-0.02455861 -0.19331358 0.98082405 0.12192396 -0.47670516 -0.24038598 -0.295466 0.32281196
0.20046446 0.33824006 1.0612776 0.5735534 0.07365696 -0.24341325 -0.17360936 0.14325131
0.7904427 -0.3029081 -0.31457102 0.7664314 -0.350674 0.87489563 0.33398926 0.72155535
0.8964883 0.10484861 0.39520195 -0.069824636 -0.18612327 0.21366061 0.7831599 -0.33373874
-0.11484355 1.1068488 1.028298 -0.11168545 -0.06870532 -0.15375979 -0.22775578 -0.39082655
-0.21995775 0.41440794 0.7577278 -0.09431681 0.3850387 0.66131675 0.078260034 -0.1448511
-0.41949221 0.5397376 -0.19893247 0.11837465 -0.008216417 -0.044721134 0.97694874 -0.15625298
0.82924455 -0.3257559 0.10084059 0.44114482 0.84846073 -0.2791546 0.9826242 -0.03962445
0.0026963195 0.17014216 0.5130682 0.19127636 0.9650708 0.06370858 -0.30705506 -0.12394284
0.18011415 -0.26488766 -0.027154502 -0.3917604 0.31181976 0.17480132 0.016533649 -0.29364783
-0.17171043 -0.30137548 -0.17145737 0.03564354 0.1898618 0.43252647 -0.40472043 -0.49565345
0.22983687 -0.29837582 0.43785003 -0.34439316 -0.19078748 -0.13901262 -0.29159248 0.48488238
-0.20424595 0.7266271 -0.21218969 0.92912877 -0.20712812 0.39362204 0.4983393 0.5605743
-0.118738726 -0.6623977 0.6099916 0.36339533 0.017358389 0.76661575 0.12150173 0.25229535
0.78055865 0.49611813 0.6960646 -0.21954462 -0.40121913 -0.2671231 0.88730735 0.8943248
-0.0910003 -0.23851256 0.4739989 0.30219275 -0.24310514 -0.29878858 -0.41407105 -0.191004
-0.28192577 0.30724868 -0.4206725 -0.2723084 -0.12965268 -0.13308956 -0.11105608 -0.41017002
0.2791321 0.18667127 0.36590013 0.62900376 0.15783268 -0.04389215 0.28595343 -0.3980824

weight f4 [256, 256]
00000000: 4ada 1bbd b2b5 063c b1c3 40b9 ff33 67bd
00000010: adfe 1e3b efc0 7bbd a4a9 713d d8c7 50bd
00000020: f57f 1dbc ba68 24bd 9ae5 bdbd 6002 7bbd
00000030: 51ed f73c 915f 25bb 6f1c a93c e229 f5bc
00000040: 0a74 d83b 8463 aabd f2e5 85bc 4693 6e3c
00000050: 72f8 90bd c2b3 423c a83b 843c 4ee0 01bd
00000060: fff1 873b 95fa c3bd 4f62 a2bd 62ab 3b3d
00000070: d866 663c 89da 11bd 286a fbbc 9890 883c
00000080: 1a3c 15bd fcf5 213c 8ac5 e0bc a7cf bbbd
00000090: 151b ccbd c5ed 68bc 6dc3 81bd ee22 28bd
000000a0: 2fdb 66bc e015 a53b 84c2 31bc 3f1d 653c
000000b0: 148e 4b3c f9a6 56bd 9854 e93c 1c81 d5bc
000000c0: 6221 a2bc 3db9 773d f9f2 55bd 9ba1 ac3b
000000d0: cb5b 8cbd f478 00bb 9e37 123d f55b d2bd
000000e0: b5c5 77bd fc5b 703c 2ec4 19bc d576 563c
000000f0: 48f3 1a3c d827 bbbd 7076 183c 9e94 7d3c
00000100: c951 013d ea87 db3c 201f 4fbb f480 afbd
00000110: 6958 80bd 6ee3 a2bd 6ca8 b5bd 6697 c8bc
00000120: dc9a afbd 3dc6 273d 4a03 eabc d58a b1bd
00000130: 3070 e13b 3062 aebd af79 57bd dfb7 2bbc
00000140: 7372 9a3b eaa3 f2bc ae49 a038 8efd 173b
00000150: 3d26 083c 7dad 26bc caa9 5cbd ef66 493d
00000160: de9e a4bd 7818 5fbd 5b1d b3bd b8e0 2cbc
00000170: 8363 19bd 360e 5c3d ee75 873d 8353 aabd
00000180: 1c5f 173c ba53 933c e856 423c b247 363c
00000190: d149 b03d 74b3 383c f883 fbbc bfa9 79bd
000001a0: 56ca bbbd d4c5 8d3d da68 75bd 007c d53a
000001b0: 53eb a4bd 110d cb3c e040 33bd 8ee3 6c3c
000001c0: fd51 b6bd 67ce c53c ba65 1db8 0d36 79bd
000001d0: 3f3b 8a3c 4a97 c8bb ec36 39bc 46f9 16bd
000001e0: 1aa6 36bd f7f1 62bd 27fb 2b3c f1f7 e2bb
000001f0: 0e84 44bd 1d07 b63d cf9f 873d 93f9 293a
00000200: 9e64 09bc 8464 6cbd 4fd0 95bd 50cf a0bd
00000210: 132e 1b3d 60b5 253b cdeb 313c 6be4 68bd
00000220: 5bb0 b3bd 762d 2fbd 6ee2 293d 928c 11bd
00000230: 030c 35bd be76 a5bd 0e8f 60bd a0b2 e8bb
00000240: 482f ad3d ef13 bcbd 3157 ccbc 4818 46bd
00000250: f935 a3bd af6a 17bd 9033 f73b b4e1 113c
00000260: a58e c4bc c224 0b3c 06ed 4c3c 5be9 25bd
00000270: 8b61 43bc 6074 90bd 445f 87bd fd07 c6ba
00000280: 3e82 63bc 13b0 ceba eeba 35bc a744 b73b
00000290: 5e68 52bd 9a8b 5f3d 6b7f bdbd 9be6 2f3c
000002a0: 37ea 763c b88c 29bd a9cf cd3c 147e a0bd
000002b0: 78e3 6abd 1cdc 0fbd 057d d83c a02a 5f3b
000002c0: 1251 22bd 1c05 f53a 9e23 b3bc 74b0 21bd
000002d0: 6ca6 67bd 3990 b9bd a543 15bd a05b 2abc
000002e0: 7503 c8bd c32f 513b c2e7 e93b f77b 9d3c
000002f0: b7b9 983c 7300 b0bc 40c7 3e3b 5482 733d
00000300: f715 f53c 40a8 e13a ed8b 2ebd ee18 033c
00000310: fe36 9bbd e2c3 933c b664 443d 339f 63bc
00000320: a3cf 88bc fb04 98bd d4d8 2ebd d4b6 d53c
00000330: c07b 4d3c 1180 0dbd a6bb 1d3d ed4c 01bd
00000340: 8960 5cbd f878 57bd 9d48 353c 1720 66bd
00000350: 3f97 52bd f1bf 9dbd 62cd c43c d9dc 7cbd
00000360: ac8d 7ebd aa45 4a3d c992 883c 49f2 59bc
00000370: cc57 9e3c 2489 66bd b131 b83c d3c5 fd3a
00000380: 6590 b13b 9ec1 833c 3db5 87bd 69db 023c
00000390: 704d 2abd aabb ed3b ec93 a0bb fef4 58bd
000003a0: c72e 2b3c a2b6 943b 052a 1cbd 3931 25bc
000003b0: 200d 29bc 1f71 80ba 2d1d c83c 0c7e 40bd
000003c0: 51bc 84bd 43c0 6b3b f69e 423c eed7 ff3c
000003d0: c1c7 85ba 901c d1bc 1b82 38bd bb26 94bd
000003e0: 0b46 e23c 1dc5 c1bd 49fe 993c 37da 4e3d
000003f0: 5615 c3bd 45fc 4abd 2b12 8d3d 3190 8ebc
-0.038049974 0.0082220305 -0.00018383448 -0.05644607 0.0024260685 -0.061463293 0.058999673 -0.050971836
-0.009613027 -0.040138938 -0.09272309 -0.06128156 0.030264528 -0.0025233964 0.020643441 -0.029927198
0.00660563 -0.08319762 -0.016344998 0.01456148 -0.07078637 0.011883678 0.016141728 -0.031708054
0.004148721 -0.09569279 -0.07928907 0.04581774 0.014062606 -0.035608802 -0.030690268 0.01667051
-0.03643427 0.009885307 -0.027437944 -0.09170466 -0.09966103 -0.014216845 -0.06336103 -0.041048937
-0.014090343 0.005038008 -0.010849599 0.013984024 0.012424011 -0.05240533 0.02848272 -0.02606254
-0.019791309 0.06047939 -0.05223367 0.0052682883 -0.068534456 -0.0019603344 0.035697572 -0.10271446
-0.060491282 0.014670368 -0.009385152 0.013089855 0.009457417 -0.09138459 0.009305581 0.015477328
0.031572137 0.026798207 -0.0031604245 -0.08569518 -0.06266863 -0.07953535 -0.088700145 -0.024486255
-0.08574459 0.04096054 -0.028566021 -0.08669058 0.006879829 -0.085148215 -0.05260628 -0.01048085
0.0047133504 -0.029619176 7.6431184e-05 0.0023191902 0.008309898 -0.010173199 -0.05387286 0.04917043
-0.08038114 -0.054466695 -0.087458335 -0.010551624 -0.037448417 0.05372449 0.0661429 -0.0831671
0.009238984 0.01798426 0.01186154 0.011125492 0.08607829 0.011273254 -0.030702576 -0.060952898
-0.09169452 0.06922498 -0.059914447 0.0016287565 -0.08052697 0.024786504 -0.04376304 0.01445855
-0.08902357 0.024146272 -3.7526457e-05 -0.060842562 0.016873954 -0.0061215507 -0.011304598 -0.03685882
-0.044592 -0.055406537 0.010496891 -0.0069265296 -0.0479775 0.088880755 0.06622278 0.0006484028
-0.008385805 -0.057713047 -0.07315122 -0.07852042 0.037885737 0.002528511 0.010859442 -0.05685846
-0.087738715 -0.042767964 0.041475706 -0.03553445 -0.04420091 -0.08079289 -0.054823928 -0.007101372
0.08456284 -0.091834895 -0.02494392 -0.048363 -0.07969279 -0.036966976 0.0075439885 0.0089039095
-0.0239938 0.00849265 0.012507683 -0.04050575 -0.0119251115 -0.07053447 -0.06609967 -0.0015108582
-0.013886033 -0.0015769027 -0.011091931 0.005592901 -0.051369064 0.054576494 -0.09252819 0.010736133
0.01507049 -0.041393965 0.025123434 -0.078365475 -0.057345837 -0.035122022 0.026426801 0.0034052506
-0.039628096 0.0018693539 -0.02186757 -0.03947492 -0.056555197 -0.090607114 -0.036441464 -0.010397822
-0.097662844 0.0031919337 0.0071382234 0.01922415 0.018643243 -0.02148459 0.0029110461 0.059450462
0.0299177 0.001721628 -0.042613912 0.008001549 -0.07578848 0.01803774 0.047947608 -0.0138929365
-0.016700571 -0.07422825 -0.042687252 0.026088156 0.012541711 -0.03454596 0.038509034 -0.031567503
-0.053803 -0.0526056 0.011064676 -0.056182947 -0.05141377 -0.077026255 0.024023715 -0.061734054
-0.062146828 0.049382843 0.016671555 -0.013302394 0.019328974 -0.05628313 0.022484632 0.0019361324
0.0054188245 0.016083535 -0.06626365 0.007986882 -0.041577756 0.0072550373 -0.004900446 -0.052968018
0.010448164 0.004538373 -0.03812601 -0.010082536 -0.010318071 -0.0009799338 0.024427975 -0.046995208
-0.06481231 0.0035972751 0.01187872 0.031230893 -0.0010206626 -0.025526315 -0.045045953 -0.0723395
0.02762129 -0.094614245 0.01879801 0.050501075 -0.09525554 -0.04955699 0.06888231 -0.01740274

bias f4 [256]
00000000: 74c8 aabc c3b7 4d3f 3172 393e b940 a2bd
00000010: 6c10 353f f379 3d3f 3678 9fbd d949 8abd
00000020: 4696 d3bd b2c7 babd caa1 0fbd d0f6 51bd
00000030: f315 9b3c 415d 3abd b630 5dbc bb8e 1f3b
00000040: ba72 3c3c 4f51 ccbc d328 113d a306 b83b
00000050: 3745 c53c 73c7 b2bd 4d38 b0bb 9b04 813e
00000060: 5ddb 95bd a83f e5bc d96f d83c 4336 4bbd
00000070: c579 29bd 0cb1 42bc 9af9 c13e 718c 8b3d
00000080: 46a8 6cbd 0dea 43bc 736a bebd a889 cbbc
00000090: bac4 0fbc d1e7 0abd 4726 383f 22b1 b9bd
000000a0: a8ef b63c e2bb 8f3c 5bfe 32bd 2acb 963d
000000b0: 57a9 03bd d2f6 98bd 949e 003c f047 95bc
000000c0: 8511 503f bcba 183d 20b5 8d3d fdb0 473d
000000d0: c2d4 823c 65ba bebd a6c4 5f3f 30a2 d1bd
000000e0: 625b 583f 77ba 8abd 18a7 42bd 21f6 47bb
000000f0: d624 82bd 47c6 6ebd 08b4 9fbd 4530 f6bc
00000100: b20a d7bd 1bf0 843d 8a42 053d ec2d 183d
00000110: 2d13 f0bb 58f3 96bd 5f7f ef3c 97f6 64bc
00000120: 7d04 35be b49c dabd ceef 083d 5989 73bd
00000130: 8b94 f53b 1fbb 603f 4f21 873d d901 083c
00000140: 2663 a4bd 93b0 bbbd 45aa 773b 4d46 27bd
00000150: a531 b3bc 8399 a6bb 9e1d 2a3d 390a 563e
00000160: 1ee2 9fbc fdfb debc 3433 533d 8da2 d33c
00000170: f5ab 2fbd 4efa f73e c9f9 d43c c8ac 5fbc
00000180: 2dcc 1bbc 0749 2cbc 257b 8cbc 6d1e cdbc
00000190: 0939 683e cc27 5ebd 7227 73bc 1b40 683b
000001a0: 45e3 333f 926c 77bc 1ff6 9e3e 7b99 343c
000001b0: f77c 5b3f 3c2b 1c3b 2534 8bbd 4f3e cd3c
000001c0: 4c8d 67ba 6ef9 013e 2a7d 92bd d4c3 b73c
000001d0: 5b46 febc ada3 6ebd f78d 86bd df37 f3bc
000001e0: 3dbd 613c ccf8 5bbd 066f c43e 2811 bc3a
000001f0: b74a 48bd 6ca5 373f 18a0 bcbd 0beb df3c
00000200: 431f 37bd 2244 58bd 73cb 523f cc33 963d
00000210: f349 08bd 9fd1 eabc 2196 3e3e fc68 f4bd
00000220: 0588 9dbc 26c5 29bd 0014 11bd b8b4 063c
00000230: 791a 033d fbfc 26bd a95d 80bc ac3e 503f
00000240: 7d0e 44bc c72c d63e f6b7 ad3e bb86 5e3d
00000250: 2d32 c9bb d367 29bc 3931 b63e 2f84 46bd
00000260: cc75 153d a04e af3c 7285 8ebd 46f6 b8bd
00000270: 90b7 5f3f e064 01bd 0874 c83c 4a38 83bd
00000280: 6b75 bcbc 5c4a f93c fe1f 84bd 1f43 7ebd
00000290: cd73 78bd c6d7 083d 9062 aabc f527 e43c
000002a0: b577 18bd 2fcb d3bc 600c b2bd 3da7 203b
000002b0: 0c50 333e f0f6 a4bd a774 48bd efb9 6cbd
000002c0: 788c c9bd 543a 883c 4cfa 1b3d c09b fe3b
000002d0: 625c 393f b3a9 09bc ae5c 2dbc 68f7 c43c
000002e0: c955 a1bd 663c 7fbd 9ac8 05bd 98ae 1b3d
000002f0: b26f 92bd c49b 36bd a8d0 52bc 4041 203f
00000300: 100d 1b3d 97c0 863c ee01 34bd 030a 3cbb
00000310: 252e 92bb f166 5fbd 42b7 26bd a623 5d3d
00000320: 5662 bfbd 42ce a3bd cdae 8cbd 732e 463f
00000330: c83d 29bc fa52 253f 91a5 11be 2882 b2bc
00000340: c9e7 6ebd 4298 a73b ac40 afbd f9f3 55bd
00000350: 904f 833b c3fd af3b e2cb 773d 9b3f efbc
00000360: 8957 463d 4349 193b e619 053d 22c8 593d
00000370: 002f a0b9 6cec 59bd 851c 633c 8a97 063f
00000380: 7eff 5ebd 40db d93c 306f fb3c 3bad 16bd
00000390: a27d 53bd 093b 89bb 8280 1db8 0120 173d
000003a0: 53b7 d0bc 502b 303f f810 c03b 89f2 d8bc
000003b0: 8f11 96bd f25f 193c 4a9a b13c 39b0 95bd
000003c0: 1f35 38bd e852 1abd 0c8a 86bd ccd8 563c
000003d0: c3b2 423f 2472 4a3d 2b34 b2bd fc43 323e
000003e0: 0f0e 1abc 3997 5a3c 1007 9dbd 09c7 293c
000003f0: be95 abbd e97c 96bd acc2 733c 2709 95bd
-0.020847537 0.80358523 0.18109967 -0.07922501 0.7072818 0.74014205 -0.077866 -0.067523666
-0.10331397 -0.0912012 -0.035066403 -0.05126077 0.018931365 -0.04549909 -0.013500383 0.0024346549
0.011501962 -0.024941115 0.035439324 0.0056160255 0.024080856 -0.08729448 -0.0053778053 0.25198826
-0.07317231 -0.027984455 0.02642052 -0.049612295 -0.041375894 -0.011883032 0.37885743 0.068138964
-0.057777666 -0.0119576575 -0.09297647 -0.024845913 -0.008774931 -0.033912484 0.71933407 -0.090669885
0.022331074 0.017545644 -0.043699604 0.07362969 -0.032143917 -0.07468952 0.007850308 -0.018222779
0.8127673 0.03728746 0.069193125 0.048752774 0.015970591 -0.09312896 0.87409437 -0.10236013
0.8451444 -0.067738466 -0.047522634 -0.0030511694 -0.06354682 -0.05829456 -0.0779801 -0.030052314
-0.10500087 0.06491109 0.03253416 0.03715317 -0.0073265047 -0.07370633 0.02923554 -0.013974807
-0.17677493 -0.1067442 0.03343182 -0.059457157 0.0074945143 0.87785524 0.0659815 0.008301222
-0.080267236 -0.09164538 0.0037790698 -0.04083853 -0.021874258 -0.005084218 0.04153215 0.20902337
-0.019517 -0.027219767 0.051562503 0.025834346 -0.0428886 0.48433155 0.025998013 -0.013652034
-0.0095091285 -0.010515458 -0.017148564 -0.025038922 0.22678007 -0.054237172 -0.014840947 0.00354386
0.7026866 -0.015101569 0.3104715 0.011022921 0.85737556 0.002382948 -0.06797055 0.025054125
-0.00088330056 0.12692806 -0.071527794 0.022432245 -0.031039407 -0.058261562 -0.065700464 -0.029689727
0.013778028 -0.053704068 0.38365954 0.0014348375 -0.04889938 0.7173679 -0.09210223 0.027333757
-0.044707548 -0.05279935 0.8234169 0.07334098 -0.03327365 -0.028664408 0.18611957 -0.11934087
-0.019229898 -0.04144778 -0.035419464 0.008221798 0.03200767 -0.040768605 -0.01566966 0.8134563
-0.011966345 0.41831037 0.33929414 0.054327708 -0.0061400146 -0.010339695 0.3558443 -0.048465904
0.036489293 0.021399796 -0.069590464 -0.09031348 0.8738947 -0.031590343 0.02446939 -0.06407221
-0.023005208 0.030430965 -0.064514145 -0.06207573 -0.06065731 0.033408903 -0.020798951 0.027851084
-0.037223537 -0.025853721 -0.086937666 0.0024513744 0.17511004 -0.08054912 -0.048939373 -0.057794508
-0.098412454 0.016629376 0.0380805 0.0077700317 0.7240659 -0.008402276 -0.010581179 0.024043754
-0.0787769 -0.06231346 -0.03266201 0.038008302 -0.071502104 -0.044582143 -0.01286713 0.62599564
0.037854254 0.016449256 -0.043947153 -0.002869249 -0.0044610673 -0.054541532 -0.040702112 0.053989075
-0.09344928 -0.07998325 -0.06869278 0.77414626 -0.010329671 0.6457974 -0.14223315 -0.021790579
-0.058326516 0.005114586 -0.08557257 -0.052234624 0.0040072873 0.005370827 0.060497172 -0.029205134
0.048423324 0.0023389615 0.0324954 0.053169377 -0.00030552596 -0.053203985 0.01386178 0.5257498
-0.054442875 0.026593804 0.030692667 -0.0367863 -0.051633485 -0.0041879457 -3.75514e-05 0.036895756
-0.02547804 0.6881609 0.005861398 -0.026482837 -0.07327568 0.009361254 0.021680016 -0.073090024
-0.044972535 -0.03767672 -0.06569299 0.013113212 0.7605402 0.04942526 -0.087013565 0.17408746
-0.009402766 0.013341718 -0.07667363 0.010362395 -0.083781704 -0.073480435 0.014877956 -0.07277136

weight f4 [6, 256]
00000000: df5f ed3c e655 e53d 15d8 8fbc ee58 22bc
00000010: b109 543d f1b3 063d 70f9 153c 469f fcbc
00000020: f565 873b 8f16 593d b901 443c b6d7 f63b
00000030: dbe9 f5bc c02a 25bc 577a 0cbc 64db 9cbc
00000040: 0b47 743b 5600 00bb 2b60 3f3d 0288 e0bc
00000050: d427 9a3d 3764 e2bc e323 7fbd b79c f13d
00000060: ebcb 37bb de84 553d 8987 c7bc 1eb3 bcbc
00000070: f4d5 b23d f02c 1a3b f403 0bbc 6b1f 89bc
00000080: 532b 5dbc 3089 03bd 46d4 93bd d098 4b3d
00000090: 17dd 073c 904f 873b 02df ec3d ecfe c2bc
000000a0: 203d 71bd ab56 223d 6c1c 2c3d ad52 063e
000000b0: fe01 7c3b 4659 e5ba b129 e43c 3620 b0bc
000000c0: 80c7 1d3e d51c c9bd 9104 5d3e e237 6bbc
000000d0: ead8 05bd f886 023c baa6 033e 68e5 203e
000000e0: a6a2 bc3d e6de 153c 7e77 ebbb 8bed 033d
000000f0: 27f7 e6bd 3617 ebbc 6450 8c3c 7bcf bebd
00000100: e300 133d 8e66 56bb cb46 e13b ec83 b7bb
00000110: 8465 04bb fd05 8fbc 53bf e839 3507 08bd
00000120: 9758 da3d 7cd0 083d 2af7 96bc d545 853c
00000130: 0faa 54bc 2a5d 033e 809b 533d 74ea 0e3c
00000140: ea91 bd3b d8c3 f3bc 5be9 d9bd 617b 74bd
00000150: a25a 38ba 267f 673c d13c 083c 5d15 29bd
00000160: 705c e9bc 5498 bebc 6724 2c3d b458 1a3d
00000170: d6f1 98bc fbc7 0c3c 2c05 723b 013c 17bc
00000180: 3439 a8bc e559 0abc 86e4 ff3c 92b4 063d
00000190: 81f9 aebc 2ed5 0c3b db0e f039 e8af 9fbc
000001a0: 0f31 ba3c e10f 983b c8cb be3e f279 b0bc
000001b0: cf6c 0f3e e996 063c c2d8 2ebb ae50 ceba
000001c0: c589 d7bb 446b 48bc c786 563d 73d8 e8bb
000001d0: 680c 8cbc 0bd2 723c 9b80 37bc 3466 acbc
000001e0: fff0 f53b 6682 54bd 48f9 8c3d 1094 6f3c
000001f0: ac3f 233d f763 8e3d cde5 5fbc f9fe afbc
00000200: 33cf 96bb 7196 9dbb b29c e33d 191f 553e
00000210: 67f3 0cbc 69ec 673d 9cf8 083d d065 3d3d
00000220: 8c6a c9bc a476 093d e0c3 c03c 1c01 2dbc
00000230: b726 42bc 48b4 353d 29f9 063d c87b 8f3d
00000240: ead3 90bd e7fe cdbc a12d 3dbd ee32 ebb9
00000250: 8b32 f7bc 8a7c 593d 7ce0 58bd 4d4b 0bbe
00000260: 55b6 3c3d c9b6 f8bc ce6a 963d e242 b43c
00000270: 159f ad3d 60d3 7dbb cbe6 8ebc dc54 77bc
00000280: a91e fb3c 9c44 03bd 8c20 ecba b4bc c03b
00000290: 96b3 cb3c 67e2 5f3a cc52 7d3c 0bd7 853d
000002a0: ac71 3e3d 71fe 32b8 6fe6 0f3d 6eed 3d3c
000002b0: 79f0 98bd 70e3 e9bb 6ff3 db3c c3d0 5c3c
000002c0: 24a4 05bd 5064 963c 6637 6a3c 887e 653c
000002d0: 07f2 cc3d 3df8 783d 8a9d b03c 23a2 00bd
000002e0: 64a4 4dbc c6d0 9fbc 7056 213d faa1 063d
000002f0: b3ba e03c 57b0 a9bc a8f0 1cbc 9e0e 8339
00000300: 1842 f1bc ff6a 1b3c 6533 403c 149f 2f3c
00000310: c2e0 03bc d2bb babb dd4e 083d d35f 183d
00000320: fb9f 293d 11eb dd3c cd55 08bc f1f7 993d
00000330: 4a1d 7a3d b603 833d d78d c9bd 00ae b23a
00000340: 7f60 933c 0fcb 98bc 363c c23a 1e4c 92bc
00000350: d056 b93c cb2c fbbc 76ef 64bd 7229 2ebc
00000360: 8623 173b c547 8abb 692f f4bc 65d3 5ebd
00000370: 6c5b 753d e639 76bd 1c30 a6bc 3f8a b3bc
00000380: 25b1 d73c 6da7 94bc 58b3 98bd 8480 5c3c
00000390: 9516 87bb 9bdb 07bb 14fc c83c 49ad e63c
000003a0: 5114 153c 0222 413d e6d6 b0bc 4f3a aebb
000003b0: 7852 5a3d 3af2 1abc 981c b83c 4071 58bc
000003c0: abbb 973b 680e 1b3d e37b c43b c6d9 aebc
000003d0: 5899 323d ff78 fa3a b3bf 3c3d 1fae 83bc
000003e0: 851e acbd e995 3b3c 117b 723d 68d0 973b
000003f0: 6c72 0b3c fde9 133c 3f07 3f3d 6500 30bc
0.028976379 0.111980245 -0.01755909 -0.009908898 0.051767055 0.03288645 0.009153709 -0.030837666
0.0041320273 0.05300003 0.011963301 0.007533039 -0.030018738 -0.010080993 -0.00857409 -0.019147582
0.003727379 -0.001953145 0.046722572 -0.027408604 0.07527128 -0.027635677 -0.062290084 0.11797469
-0.0028045129 0.052128665 -0.02435662 -0.023034628 0.087322146 0.002352532 -0.008484829 -0.016738614
-0.013499099 -0.032113254 -0.07218222 0.04970628 0.008292458 0.0041293576 0.11565973 -0.023803197
-0.058896184 0.039633434 0.042019293 0.13117476 0.0038453336 -0.0017497919 0.027851911 -0.021499734
0.15408134 -0.098199524 0.21583773 -0.014356585 -0.03267757 0.007966749 0.1285657 0.15712512
0.0921071 0.009147381 -0.0071858754 0.03220896 -0.11277609 -0.028697591 0.017128177 -0.093169175
0.035889518 -0.0032714936 0.0068748943 -0.005600443 -0.002020211 -0.01745891 0.00044393036 -0.03321
0.106614284 0.03340195 -0.018428404 0.01626865 -0.012979998 0.12828508 0.05166197 0.00872289
0.0057852166 -0.029756472 -0.10640212 -0.059687976 -0.00070325483 0.014129436 0.008315281 -0.04128014
-0.02848646 -0.023265995 0.042026903 0.03768225 -0.018670004 0.008592601 0.0036929352 -0.009230615
-0.02053509 -0.008444284 0.031236898 0.03288705 -0.021359207 0.002148937 0.00045787435 -0.019493058
0.022728471 0.004640565 0.37264848 -0.021542523 0.14006351 0.008214691 -0.002667949 -0.0015740597
-0.0065777027 -0.012232605 0.052374627 -0.007105881 -0.01709576 0.014820586 -0.0112000955 -0.021044828
0.0075055356 -0.05188217 0.06883484 0.014622703 0.039855644 0.069526605 -0.013665629 -0.021483885
-0.004602337 -0.004809194 0.11113872 0.20812644 -0.0086029535 0.056621943 0.033440217 0.046239674
-0.024586938 0.03356041 0.0235309 -0.0105593465 -0.011850051 0.044361383 0.03295246 0.07006031
-0.070716694 -0.025145961 -0.046186093 -0.00044860638 -0.030175468 0.053097285 -0.05294846 -0.13602944
0.046072323 -0.030360596 0.0734459 0.022004548 0.08477608 -0.0038730726 -0.017444035 -0.015095916
0.030654268 -0.032047853 -0.0018015071 0.00588187 0.024865907 0.00085405115 0.015461635 0.06535157
0.046495125 -4.2675474e-05 0.035131868 0.011592252 -0.074677415 -0.0071377084 0.026849477 0.013477507
-0.03262724 0.01835838 0.014295435 0.014007218 0.100071006 0.060783613 0.021559495 -0.031404626
-0.012551401 -0.01950873 0.039389074 0.032869317 0.027432775 -0.020713968 -0.009578861 0.00024997158
-0.029450461 0.009485959 0.011731003 0.0107190795 -0.008049192 -0.0056986595 0.033278335 0.03720076
0.041412335 0.027089627 -0.008321238 0.07517994 0.06106309 0.06397192 -0.09841507 0.0013632178
0.017990349 -0.018651513 0.001481897 -0.017858561 0.022624403 -0.030661007 -0.05589243 -0.0106299985
0.0023061945 -0.0042199814 -0.029807763 -0.05440082 0.05990164 -0.06011381 -0.020286612 -0.021916507
0.026329586 -0.018146241 -0.07456082 0.013458375 -0.004122565 -0.002073026 0.024534263 0.0281588
0.009099082 0.047151573 -0.021586847 -0.0053170095 0.053301305 -0.009457165 0.022474572 -0.013210595
0.004630526 0.037855536 0.0059962138 -0.021344077 0.04360327 0.0019109546 0.046081256 -0.016074238
-0.08404259 0.011449316 0.059199397 0.0046329983 0.008511167 0.009027955 0.04663777 -0.010742282

bias f4 [6]
00000000: fb2d 453f 3a13 0f3f 17b8 fa3e fc1b 153f
00000010: 403a 143f aaaf 1f3f
0.77023286 0.5588871 0.48968574 0.58245826 0.5790138 0.6237742
