model/rlbd_continuous_actor.pt (torch_old, 273094 bytes, 5 tensors)

weight f4 [256, 3]
-0.116024345 -0.488285 0.4871243 0.08680727 0.3057588 0.18816757 0.4583649 -0.110332154
0.3600182 0.15003295 0.041356284 0.15755226 0.10388373 0.324404 -0.31715325 0.45131156
-0.05075265 0.07670631 -0.066030525 0.2298687 -0.42687362 0.44080853 -0.09452904 0.18183798
-0.25139531 -0.06898772 -0.20444545 0.044573154 0.16820541 -0.4917677 0.1112384 -0.3473539
0.35777923 0.28806186 -0.2747538 0.5759049 0.34680453 0.46613628 -0.0992303 0.55464804
-0.40022093 0.30039084 0.3565574 0.29700452 0.55829877 0.4217378 0.51046723 0.10722548
-0.36012703 0.22735353 0.50622004 -0.37421733 -0.47719234 -0.4434728 0.33726442 -0.07291955
-0.06086542 0.30219412 -0.5045238 0.15326978 0.08834392 -0.10400903 0.33620444 0.4855776
0.44061148 -0.00885676 0.03875031 0.36794078 -0.21359293 0.27562365 -0.043604676 -0.38787824
-0.26417637 -0.31218445 -0.34293026 0.28106734 0.31008676 -0.388141 -0.003503975 0.39761296
-0.32416138 0.3582945 0.076745965 -0.1273214 0.34642157 -0.55710167 -0.25331596 0.061311305
0.5057729 0.29795036 -0.25708917 -0.55940783 -0.14776686 0.1884969 -0.48536846 0.09509632
0.11152421 -0.2184964 -0.40895712 -0.5391611 0.10483658 -0.29428062 -0.52662027 -0.46262652
0.21123612 0.4756954 0.10141658 -0.008984397 -0.10693434 0.37769675 -0.09151933 -0.46035686
0.007623315 -0.24630195 0.1481136 -0.12974001 0.3254341 0.3587543 0.3194779 0.12980166
-0.08257994 0.059993267 -0.20620233 -0.27571794 -0.061568737 -0.49221814 0.3518984 0.48095995
-0.20047991 0.43915045 -0.4595858 -0.42935267 0.51361763 0.53711456 0.21703121 -0.42826444
0.07423806 0.029245019 0.16353501 -0.09559761 0.4806123 0.14943063 -0.13980445 0.22904317
-0.1558398 0.20889303 -0.33402124 -0.2982983 -0.15233706 0.24871176 0.30102658 -0.05245014
-0.39733288 0.4413008 0.07890662 0.2327273 -0.38408655 0.1449845 0.12994072 -0.5542998
0.25786433 0.5308999 -0.41076386 0.3910294 0.01390773 0.38820526 -0.22927783 0.061595436
0.5522051 -0.1412545 -0.51715416 -0.15558489 -0.52564985 -0.019787794 0.36809665 0.013538889
0.09464572 0.4744892 -0.5494092 -0.34001818 -0.5647977 -0.32587686 0.5246641 0.42420056
-0.027781025 -0.29607168 0.04243527 0.032419093 -0.4164717 -0.5538439 -0.38972813 -0.097480685
0.22042124 0.08194707 0.07943493 -0.057519317 -0.44211128 -0.3036524 0.11505531 -0.20549777
-0.4984443 -0.08550811 0.3991762 -0.47421092 0.30518466 0.5132115 0.05416526 -0.56581354
-0.44034943 0.32675892 -0.20950536 -0.48222452 -0.52844787 -0.12064284 0.48264557 -0.0583484
0.097326376 -0.53501374 0.51474637 -0.10205442 -0.46745607 -0.36534178 -0.16838105 0.10371739
-0.4377808 0.44785097 0.44935656 -0.097710975 0.38299066 0.094671614 0.20152897 0.4761441
0.12955222 0.3127 -0.43764436 0.11663709 -0.42411065 0.19840443 -0.14350224 0.18527786
0.519608 -0.25016737 -0.48266283 -0.17017975 -0.15933031 -0.38064638 -0.029901333 -0.37938562
0.12253981 -0.13930842 -0.44171584 -0.15726313 -0.3113026 0.3161372 -0.09401204 0.09469133
00000000: 2c9e edbd 7e00 fabe 5b68 f93e 03c8 b13d
00000010: 6b8c 9c3e 00af 403e ceae ea3e d3f5 e1bd
00000020: 4e54 b83e 3da2 193e 3565 293d 6155 213e
00000030: fec0 d43d 4818 a63e e961 a2be 4f12 e73e
00000040: 03e2 4fbd 3318 9d3d 033b 87bd b362 6b3e
00000050: 2e8f dabe a8b1 e13e 7198 c1bd bc33 3a3e
00000060: e3b6 80be 6f49 8dbd 265a 51be 5792 363d
00000070: 0a3e 2c3e fac8 fbbe f5d0 e33d 5fd8 b1be
00000080: d72e b73e d87c 933e 88ac 8cbe 816e 133f
00000090: 5d90 b13e 6aa9 ee3e 4139 cbbd 6afd 0d3f
000000a0: c2e9 ccbe d4cc 993e b18e b63e fa10 983e
000000b0: abec 0e3f 04ee d73e fbad 023f 0899 db3d
000000c0: 9262 b8be 5dcf 683e a397 013f 6a99 bfbe
000000d0: 8e52 f4be de0e e3be ecad ac3e d856 95bd
000000e0: 054e 79bd 30b9 9a3e 7928 01bf c1f2 1c3e
000000f0: a8ed b43d b002 d5bd fd22 ac3e a19d f83e
00000100: d497 e13e f21b 11bc a5b8 1e3d bc62 bc3e
00000110: 1bb8 5abe 8b1e 8d3e d19a 32bd fa97 c6be
00000120: 2042 87be a4d6 9fbe 8e94 afbe 0fe8 8f3e
00000130: b1c3 9e3e 6bba c6be f2a2 65bb ed93 cb3e
00000140: 7bf8 a5be 6072 b73e fd2c 9d3d 8b60 02be
00000150: 2b5e b13e 379e 0ebf a1b2 81be 9021 7b3d
00000160: 557a 013f f38c 983e 31a1 83be 5a35 0fbf
00000170: 3250 17be 5505 413e 3782 f8be dcc1 c23d
00000180: ce66 e43d 85bd 5fbe d462 d1be 7606 0abf
00000190: 90b4 d63d f3ab 96be 96d0 06bf 62dd ecbe
000001a0: 484e 583e 598e f33e 7fb3 cf3d 4b33 13bc
000001b0: 6400 dbbd 7861 c13e 7d6e bbbd e5b3 ebbe
000001c0: 00cd f93b 9436 7cbe 17ab 173e 91da 04be
000001d0: 4c9f a63e a5ae b73e 9b92 a33e baea 043e
000001e0: ac1f a9bd 80bb 753d b426 53be e72a 8dbe
000001f0: 802f 7cbd 0404 fcbe 072c b43e 6240 f63e
00000200: 9b4a 4dbe 54d8 e03e d44e ebbe 1dd4 dbbe
00000210: 727c 033f 5780 093f 6e3d 5e3e 7a45 dbbe
00000220: 200a 983d 4093 ef3c b975 273e aec8 c3bd
00000230: d112 f63e 5804 193e e628 0fbe 4b8a 6a3e
00000240: 7894 1fbe 0ee8 553e d504 abbe 8eba 98be
00000250: 3ffe 1bbe 4cae 7e3e 2820 9a3e f5d5 56bd
00000260: 376f cbbe 2ef2 e13e cb99 a13d 1150 6e3e
00000270: fea6 c4be d176 143e 2e0f 053e 97e6 0dbf
00000280: cb06 843e 0ee9 073f a44f d2be 0135 c83e
00000290: 3fdd 633c d7c2 c63e cfc7 6abe 7f4b 7c3d
000002a0: 505d 0d3f 05a5 10be 3764 04bf a551 1fbe
000002b0: fd90 06bf 031a a2bc 2a77 bc3e 37d2 5d3c
000002c0: 9ed5 c13d 40f0 f23e 15a6 0cbf dd16 aebe
000002d0: 9596 10bf 55d9 a6be 6350 063f d130 d93e
000002e0: 0895 e3bc b596 97be 9bd0 2d3d e2c9 043d
000002f0: c73b d5be b7c8 0dbf 728a c7be f4a3 c7bd
00000300: 1bb6 613e ded3 a73d c8ae a23d 6099 6bbd
00000310: 695c e2be 5478 9bbe 1ea2 eb3d 026e 52be
00000320: 1734 ffbe e01e afbd d360 cc3e c6cb f2be
00000330: 2a41 9c3e d461 033f 64dc 5d3d 28d9 10bf
00000340: 7b75 e1be f24c a73e 9388 56be 22e6 f6be
00000350: 5c48 07bf 9813 f7bd 521d f73e bbfe 6ebd
00000360: 0d53 c73d a9f6 08bf 6bc6 033f e801 d1bd
00000370: 6756 efbe 140e bbbe 156c 2cbe c869 d43d
00000380: ce24 e0be b94c e53e 1012 e63e b11c c8bd
00000390: 5a17 c43e 31e3 c13d 9c5d 4e3e 29c9 f33e
000003a0: 56a9 043e 371a a03e ec12 e0be 6ddf ee3d
000003b0: 0825 d9be 882a 4b3e 40f2 12be 7bb9 3d3e
000003c0: 0805 053f f015 80be 951f f7be 9a43 2ebe
000003d0: 7c27 23be 15e4 c2be a4f3 f4bc d53e c2be
000003e0: 27f6 fa3d dea6 0ebe 9428 e2be 9609 21be
000003f0: 0e63 9fbe bcdc a13e 6289 c0bd 87ed c13d

bias f4 [256]
-0.43539912 -0.23797037 0.41932583 0.1872566 0.42049325 -0.049089182 -0.52000034 0.18734062
0.42923734 0.44231385 0.010972523 -0.07257009 -0.5571236 -0.22887236 0.27013773 -0.096501075
-0.27934086 -0.025209486 -0.46230677 -0.34205452 0.01812466 -0.47739428 -0.043442454 -0.040938508
0.4384129 -0.12245948 -0.035138786 0.49307564 -0.33615935 0.5250302 0.17562008 0.48708338
-0.2553505 -0.3708437 -0.31800452 0.5064527 -0.21792255 0.414016 -0.49953756 0.18179718
-0.19117539 -0.5006846 -0.49709484 0.51558703 0.34032038 -0.1490559 -0.09948515 0.023665033
0.53300875 0.22804368 -0.21421802 0.3494363 -0.3197115 -0.049190372 0.48173162 0.0062104585
0.25970685 0.470002 0.064594954 0.26417947 0.4710422 0.54696983 0.41514766 -0.4133197
-0.4631218 0.5555355 -0.27605718 -0.398973 0.15940644 -0.40051872 0.30481404 0.12694675
-0.38552514 -0.45435554 -0.20547044 0.29209605 -0.4291779 -0.44275144 -0.46765175 0.39458793
-0.44089416 0.48459733 0.23598588 -0.006190777 0.54327655 -0.1592737 -0.098614424 0.58223855
0.36691698 0.37752703 0.44665337 -0.36398566 0.12135902 0.42358294 -0.37654486 -0.06093071
0.41906774 0.375924 -0.39223653 0.5091505 -0.14172147 -0.24876045 -0.42955378 -0.33263224
0.10537861 -0.04231119 -0.112217456 0.08271779 0.15086593 0.4272106 -0.51836914 0.39011365
0.1828003 0.1030398 0.39513245 -0.27847534 -0.2555827 0.3816353 0.47118968 0.55066675
-0.45542136 0.11703867 0.49004775 -0.0032527545 -0.025333656 -0.095581435 -0.27633002 -0.3311485
0.34119847 -0.334609 -0.09342742 -0.017166007 0.52978426 -0.08559578 0.049440477 -0.02437115
0.40233517 0.17803782 0.06354743 0.22602423 0.12054509 -0.42844903 -0.0632717 0.5090087
-0.009696662 -0.45283806 0.5429383 0.083864756 0.4203378 -0.5683115 0.07732999 0.27414015
-0.29846323 0.43862554 -0.16399205 0.5263135 0.19139037 -0.5512031 0.18509145 0.29592043
0.3917981 -0.00034524134 -0.51181954 -0.2540194 -0.13695803 0.13164361 0.09920788 0.19768746
-0.45770228 0.10801386 0.2833989 -0.35141104 -0.09426004 0.28440815 0.28305078 0.36980414
-0.03994339 0.529974 -0.44815162 0.17199963 -0.05652088 0.5221811 -0.4648884 0.30301273
0.17221946 -0.08263186 0.48852327 0.37935045 -0.15238927 -0.1997894 0.09025593 -0.27139327
0.3218801 0.3792631 -0.13617037 -0.44734168 -0.13082576 0.458384 -0.49321032 -0.40911055
0.42593578 0.12569761 0.4383284 0.23712385 -0.24470374 0.4208817 -0.30997327 -0.15085053
0.23048931 0.55553484 -0.28190643 -0.55357474 0.08972913 -0.15785895 -0.0057461075 0.44385812
-0.039507437 0.28032663 -0.4403356 0.14649135 0.20953256 -0.31266534 -0.1299505 0.56708384
0.17354555 -0.0066526146 0.26651108 -0.23442313 0.009909515 -0.52588475 -0.47131193 -0.0024926066
0.22818784 0.03883047 -0.098621786 -0.032025333 -0.42432508 -0.20389213 -0.28003958 0.44946358
-0.34665355 -0.27289712 0.15978588 -0.4877805 0.009854015 -0.35039443 -0.18742096 0.57649255
0.27927646 0.0926516 -0.18052812 -0.039602097 -0.22366144 -0.13715059 0.5754696 -0.34421003
00000000: a2ec debe 81ae 73be e0b1 d63e 32c0 3f3e
00000010: e44a d73e bd11 49bd be1e 05bf 38d6 3f3e
00000020: ffc4 db3e f676 e23e 19c6 333c a19f 94bd
00000030: a79f 0ebf 845d 6abe 7e4f 8a3e 5ba2 c5bd
00000040: c405 8fbe 2084 cebc 79b3 ecbe c521 afbe
00000050: 2b7a 943c 066d f4be b7f0 31bd 23af 27bd
00000060: a877 e03e 09cc fabd b0ed 0fbd 6974 fc3e
00000070: 141d acbe 6168 063f c0d5 333e fe62 f93e
00000080: 4dbd 82be 3adf bdbe 7dd1 a2be e2a6 013f
00000090: 1727 5fbe e8f9 d33e 63c3 ffbe 0a29 3a3e
000000a0: 7bc3 43be de2c 00bf 3783 febe 83fd 033f
000000b0: 793e ae3e 1ca2 18be dfbe cbbd 2cdd c13c
000000c0: 4373 083f 4884 693e f85b 5bbe 51e9 b23e
000000d0: 3ab1 a3be d87b 49bd 87a5 f63e 1a81 cb3b
000000e0: 4cf8 843e 1aa4 f03e 5c4a 843d 8842 873e
000000f0: 712c f13e 3706 0c3f 3c8e d43e a49e d3be
00000100: 4d1e edbe 9337 0e3f 5e57 8dbe 3046 ccbe
00000110: 713b 233e ca10 cdbe 9610 9c3e 54fe 013e
00000120: 8d63 c5be 4aa1 e8be d866 52be 9d8d 953e
00000130: 35bd dbbe 51b0 e2be 0d70 efbe 6e07 ca3e
00000140: e1bc e1be 241d f83e 48a6 713e 00dc cabb
00000150: 2c14 0b3f a518 23be 5cf6 c9bd 960d 153f
00000160: 8bdc bb3e 394b c13e c0af e43e 545c babe
00000170: 148b f83d dddf d83e 7dca c0be 7b92 79bd
00000180: 0c90 d63e 1c79 c03e 3ad3 c8be b057 023f
00000190: 6f1f 11be 0fbb 7ebe 79ee dbbe c64e aabe
000001a0: bed0 d73d 804e 2dbd 44d2 e5bd f267 a93d
000001b0: 997c 1a3e 59bb da3e d7b3 04bf fabc c73e
000001c0: 0030 3b3e 8806 d33d cd4e ca3e 5294 8ebe
000001d0: bcdb 82be b465 c33e c63f f13e 7ff8 0c3f
000001e0: fd2c e9be f8b1 ef3d 8ae7 fa3e 2a2c 55bb
000001f0: 8788 cfbc 33c0 c3bd 217b 8dbe 4c8c a9be
00000200: 91b1 ae3e df51 abbe e056 bfbd ba9f 8cbc
00000210: f19f 073f d74c afbd 1982 4a3d 02a6 c7bc
00000220: e0fe cd3e 8c4f 363e 2825 823d e572 673e
00000230: 58e0 f63d ac5d dbbe 9894 81bd 654e 023f
00000240: c0de 1ebc 64da e7be 01fe 0a3f 49c1 ab3d
00000250: 8436 d73e dd7c 11bf 305f 9e3d 195c 8c3e
00000260: 2cd0 98be 8793 e03e 88ed 27be 7bbc 063f
00000270: d6fb 433e a51b 0dbf 9d88 3d3e e282 973e
00000280: c399 c83e 8201 b5b9 9b06 03bf d50e 82be
00000290: ba3e 0cbe 95cd 063e 802d cb3d 956e 4a3e
000002a0: f457 eabe 5f36 dd3d a919 913e 26ec b3be
000002b0: 680b c1bd f29d 913e 08ec 903e f856 bd3e
000002c0: ae9b 23bd 60ac 073f 2174 e5be ac20 303e
000002d0: 7082 67bd a9ad 053f da05 eebe 7c24 9b3e
000002e0: 4c5a 303e e53a a9bd b91f fa3e 393a c23e
000002f0: ef0b 1cbe 9895 4cbe 1ad8 b83d 0ff4 8abe
00000300: 78cd a43e c62e c23e 3f70 0bbe f809 e5be
00000310: 30f7 05be 4fb1 ea3e 1086 fcbe f076 d1be
00000320: 4114 da3e e0b6 003e 946c e03e 98d0 723e
00000330: 9e93 7abe ce7d d73e d1b4 9ebe 9078 1abe
00000340: 6405 6c3e 8837 0e3f 0a56 90be 13b7 0dbf
00000350: e8c3 b73d c7a5 21be d849 bcbb 5f41 e33e
00000360: 8dd2 21bd f986 8f3e ab73 e1be d401 163e
00000370: b48f 563e ac15 a0be be11 05be 682c 113f
00000380: edb5 313e 2dfe d9bb 2474 883e 9e0c 70be
00000390: 855b 223c 62a0 06bf cc4f f1be 005b 23bb
000003a0: 13aa 693e b30c 1f3d 38fa c9bd ff2c 03bd
000003b0: 2341 d9be 19c9 50be 5961 8fbe 1720 e63e
000003c0: 937c b1be 2cb9 8bbe e99e 233e 5ebe f9be
000003d0: bc72 213c e666 b3be 48eb 3fbe 0495 133f
000003e0: 53fd 8e3e 1fc0 bd3d 5ddc 38be cf35 22bd
000003f0: 8107 65be 3471 0cbe fa51 133f 4c3c b0be

weight f4 [256, 256]
0.053735226 0.059216343 0.003508471 -0.036241226 0.007722511 0.038008243 -0.020405337 -0.027453959
-0.042122457 -0.016967155 -0.002893947 -0.048281662 0.015236966 -0.0510315 0.0029235631 -0.0018433861
-0.058490954 0.04270472 -0.022364274 0.057455022 0.03269303 -0.058892146 -0.0009162873 0.03094484
0.036134213 -0.030364662 -0.04099136 -0.033658393 0.020488977 -0.034590658 0.011142388 -0.00054620206
-0.040638693 0.02128262 -0.05143495 -0.02067028 -0.047650076 0.00822752 0.02545923 0.011857435
0.0034905225 -0.048839048 -0.023588926 -0.04595285 0.058496885 0.019203067 -0.04488329 -0.011247501
0.045882024 0.04353886 -0.022588417 -0.061758652 0.040845543 0.017884985 -0.024088241 0.055176765
-0.020362683 -0.034643658 0.026135847 0.038094528 0.029773202 -0.030956727 -0.017523408 0.028762743
0.044070043 -0.058738448 -0.061712183 -0.053952664 0.043718472 0.03549157 0.041444138 -0.045232393
0.05251669 0.014615372 0.028868362 -0.04799562 0.04702122 -0.058390483 0.04705731 -0.019219913
-0.0131576285 0.024912437 0.05926568 0.034325726 0.061102368 -0.053793214 0.054125503 0.004310131
0.020633243 -0.050779667 0.054170556 -0.05803833 -0.054996848 -0.044365026 0.029589668 -0.02960392
-0.0030605122 0.056853607 0.023100004 -0.042050652 -0.048101194 0.03706629 0.02116847 0.05536723
-0.057797246 0.0430061 -0.042413108 0.00829789 0.005644664 -0.029306795 0.059241578 0.02631855
0.039640248 -0.014294093 0.002948093 -0.01385843 -0.036098883 0.04710477 0.057141352 0.008711606
-0.0037441254 -0.011897668 -0.060950354 0.0403943 0.055180732 -0.018085465 0.019474149 0.05049675
0.020392798 -0.04943373 -0.054018483 0.002768822 0.029719703 0.04849062 0.019679114 0.004561566
0.05047643 -0.0408232 -0.016534999 -0.046147436 0.06042617 -0.043581583 -0.05280915 -0.012834296
0.03041336 -0.046002723 0.036814243 -0.03524653 0.05345977 -0.05135996 -0.007426046 -0.015890412
-0.052767195 0.02867487 -0.057851933 -0.009661227 0.04115095 -0.057628248 -0.04653588 -0.019834124
0.0063919052 -0.034276113 -0.03785719 -0.00863681 0.03714457 -0.033537924 0.037410013 -0.036679566
0.019878596 0.058479957 0.05527184 0.0051484555 -0.023867682 -0.028673701 0.025037616 0.005146958
0.04854404 -0.0038213208 -0.05036363 0.016082197 -0.0193597 0.05848717 -0.03719034 0.048753686
0.009152293 -0.003721464 0.061667584 -0.03237821 0.041495606 -0.023887187 0.03545525 0.029513549
-0.05358634 0.025517173 0.039518796 -0.041751713 -0.053038187 0.053359814 -0.0047408044 0.02556593
0.0127074905 -0.053527363 -0.050132245 -0.009613939 0.019547105 0.027716994 0.026865497 0.056916103
-0.00058330595 0.019041948 0.037963755 0.04276722 -0.04076691 0.05891323 -0.025327452 0.0449223
-0.047542647 0.046863757 -0.058281362 -0.060755514 0.018192492 0.032611176 0.05862745 -0.05848702
0.029872566 0.023600392 0.045089573 -0.03363712 -0.025381215 -0.045827024 -0.057030514 -0.032109708
0.037804767 0.016794868 0.05535992 0.05187761 0.019487947 0.052577376 -0.051591538 0.009759836
-0.05431199 -0.017958246 -0.0075578764 -0.04749982 -0.04798369 0.007600099 -0.0262696 -0.011289388
0.0074268356 0.023944296 -0.0065213665 0.05117868 0.035477415 -0.01240924 0.043010734 0.0034192055
00000000: 7819 5c3d d68c 723d 60ee 653b ae71 14bd
00000010: 1e0d fd3b 88ae 1b3d 1829 a7bc 20e7 e0bc
00000020: 9988 2cbd b4fe 8abc 60a8 3dbb fec2 45bd
00000030: 78a4 793c 6806 51bd 4099 3f3b c69d f1ba
00000040: 3694 6fbd 25eb 2e3d 4835 b7bc f555 6b3d
00000050: 20e9 053d e438 71bd 0033 70ba 0880 fd3c
00000060: 7801 143d 50bf f8bc 8ee6 27bd 62dd 09bd
00000070: 80d8 a73c efae 0dbd 908e 363c 002f 0fba
00000080: c274 26bd e458 ae3c 74ad 52bd b854 a9bc
00000090: ba2c 43bd b8cc 063c e08f d03c b045 423c
000000a0: 40c1 643b 740b 48bd 903d c1bc 0e39 3cbd
000000b0: 6e9a 6f3d c04f 9d3c 8ad7 37bd 7047 38bc
000000c0: caee 3b3d ce55 323d 580b b9bc a4f6 7cbd
000000d0: a84d 273d 8883 923c b454 c5bc 0801 623d
000000e0: a4cf a6bc 82e6 0dbd d81a d63c 0209 1c3d
000000f0: eee6 f33c f698 fdbc 408d 8fbc d89f eb3c
00000100: ca82 343d ba97 70bd eac5 7cbd 78fd 5cbd
00000110: 2412 333d 9c5f 113d 54c1 293d 9a45 39bd
00000120: be1b 573d 5075 6f3c 587d ec3c 0e97 44bd
00000130: 5399 403d dc2a 6fbd 2abf 403d 1473 9dbc
00000140: 1893 57bc 2b15 cc3c 92c0 723d 2299 0c3d
00000150: 7a46 7a3d 4656 5cbd b4b2 5d3d 003c 8d3b
00000160: 0c07 a93c 57fe 4fbd f2e1 5d3d 9ab9 6dbd
00000170: 6044 61bd 1ab8 35bd 0866 f23c ec83 f2bc
00000180: e092 48bb 54df 683d 383c bd3c 4e3d 2cbd
00000190: c205 45bd d2d2 173d 8069 ad3c c0c8 623d
000001a0: cebc 6cbd 2a27 303d 5eb9 2dbd e0f3 073c
000001b0: e0f6 b83b ce14 f0bc 4ca7 723d 009a d73c
000001c0: d05d 223d c531 6abc cb34 413b 780e 63bc
000001d0: 6cdc 13bd eef0 403d 0d0d 6a3d 20bb 0e3c
000001e0: 0060 75bb 70ee 42bc 14a7 79bd 7e74 253d
000001f0: 3105 623d f827 94bc 4088 9f3c aed5 4e3d
00000200: cc0e a73c 067b 4abd 7c42 5dbd 2075 353b
00000210: bc76 f33c 1a9e 463d 1836 a13c 3079 953b
00000220: 60c0 4e3d 3a36 27bd 6874 87bc 1805 3dbd
00000230: 6e81 773d 9a82 32bd 684e 58bd f046 52bc
00000240: 7025 f93c 5a6d 3cbd 88ca 163d aa5e 10bd
00000250: a2f8 5a3d d25e 52bd 3056 f3bb 9c2c 82bc
00000260: 6a22 58bd 90e7 ea3c 26f6 6cbd 204a 1ebc
00000270: e68d 283d 990b 6cbd 689c 3ebd 2c7b a2bc
00000280: 3073 d13b 1c65 0cbd 2410 1bbd 6881 0dbc
00000290: e824 183d 105f 09bd 3e3b 193d 503d 16bd
000002a0: 70d8 a23c ae88 6f3d ba64 623d 60b4 a83b
000002b0: 2886 c3bc 1ce5 eabc b01b cd3c d0a7 a83b
000002c0: 1ed6 463d 206f 7abb 184a 4ebd d0be 833c
000002d0: 3c98 9ebc 3e90 6f3d e654 18bd f2b1 473d
000002e0: 80f3 153c cee3 73bb 2697 7c3d 049f 04bd
000002f0: 4cf7 293d 10af c3bc 8639 113d 66c6 f13c
00000300: 5a7d 5bbd 6409 d13c 76de 213d d803 2bbd
00000310: 923e 59bd d28f 5a3d c058 9bbb a46f d13c
00000320: 1433 503c 823f 5bbd 7857 4dbd c883 1dbc
00000330: 4021 a03c c00e e33c 0815 dc3c dc20 693d
00000340: 00e9 18ba dcfd 9b3c e27f 1b3d ae2c 2f3d
00000350: 34fb 26bd 004f 713d 847b cfbc 7200 383d
00000360: 14bc 42bd 36f4 3f3d 70b8 6ebd c6da 78bd
00000370: 6c08 953c 4c93 053d 5623 703d 1690 6fbd
00000380: 50b7 f43c 9c55 c13c d8af 383d 14c7 09bd
00000390: 44ec cfbc 1eb5 3bbd d498 69bd 7885 03bd
000003a0: 2cd9 1a3d 6495 893c 15c1 623d 9e7d 543d
000003b0: 30a5 9f3c 605b 573d a651 53bd b8e7 1f3c
000003c0: 4076 5ebd 2c1d 93bc 10a8 f7bb 2c8f 42bd
000003d0: 8c8a 44bd 400a f93b 5833 d7bc 20f7 38bc
000003e0: d05c f33b d426 c43c 30b1 d5bb bca0 513d
000003f0: c450 113d 2050 4bbc 062c 303d c014 603b

bias f4 [256]
0.0036604553 -0.023562426 0.05781042 -0.0055488856 -0.041377656 0.04192706 -0.026377484 -0.014618413
0.04009773 0.03418331 0.014990928 0.01744769 0.015747733 -0.010852629 -0.037852988 0.05591665
-0.028284356 0.034777723 0.04997304 0.035286207 0.007044563 0.053761993 0.017627254 -0.04704682
0.02643966 -0.013110079 -0.026902534 0.045264043 0.03630226 0.010856834 -0.059202235 0.070689395
-0.05139384 -0.03576368 -0.01726241 -0.05349788 0.05557126 0.03460931 0.030330934 0.0073800012
0.0076531773 0.041103624 -0.025834668 -0.044853356 0.053461835 0.067278065 0.0064275786 0.053620204
-0.057615668 0.0011002967 -0.042444 0.009884243 0.020338194 0.035099123 -0.05540842 -0.017258368
-0.02549998 0.025363116 0.060537085 -0.05192598 0.020137941 -0.009559926 -0.04362429 -0.06104015
0.007082482 0.020582959 0.032065887 0.0018448652 0.061036024 -0.013515182 -0.011313787 0.034798793
0.04954792 -0.041238472 0.06790384 0.008963543 -0.005232658 -0.058023654 0.047188487 0.00640351
-0.018224614 -0.0014763328 0.038453616 -0.013890601 0.0371783 0.0041295066 -0.010725807 0.05034679
0.043701097 0.039494842 -0.045042485 -0.04087214 -0.035814833 0.026300078 0.029925067 -0.052771423
0.0071229646 0.025928516 0.011679882 0.027833823 -0.0054238224 0.06720166 -0.05197005 -0.02743138
-0.04224129 -0.0012601776 -0.04478792 0.05651868 0.044432748 0.052367415 0.016417176 0.05762886
-0.032473285 -0.068850085 -0.06532738 0.048289083 0.009884838 -0.021065801 0.025166249 0.049265135
-0.027042784 0.02507177 -0.027909301 0.036885608 -0.028581306 -0.06130646 0.042610675 -0.009643112
-0.004512471 -0.018631265 -0.026844885 -0.02755001 -0.007072497 0.04251974 -0.047908362 0.007278803
0.012818851 0.059547152 0.0024632514 -0.0507063 -0.058118906 0.046309035 -0.046234813 0.00944867
-0.046545796 0.067144476 0.037914105 0.022578524 -0.018712431 -0.03781209 0.035515416 -0.025859876
-0.041523013 -0.009715903 0.052593883 0.012575598 -0.028323716 -0.059478603 -0.0388963 -0.008912862
0.041743595 -0.009826705 -0.025947608 -0.02428057 -0.035632234 -0.02091869 -0.012664298 -0.007814426
-0.03210427 -0.043024067 -0.048730154 0.054837756 0.039187334 0.057814203 0.03668139 -0.013120487
-0.06003479 0.041908264 -0.012713825 0.04424718 -0.021530656 0.0064781182 0.03953487 0.017941678
0.035038564 -0.03815335 -0.031441703 0.047303546 0.045812216 0.0012785303 0.025450002 0.01899743
0.010679642 -0.04311097 -0.053125545 0.012464944 -0.04470009 -0.055769637 0.011640452 -0.039181937
0.0069976225 0.036166992 0.012048027 0.029233929 0.020411767 -0.0066510323 0.0006104333 -0.011282144
0.029661696 0.028595444 -0.026088249 0.0461454 -0.03496998 -0.010847092 -0.05303917 0.039424185
0.050079565 -0.044417214 0.056028515 0.024259545 -0.034800537 0.03565569 -0.004558201 0.0014471514
0.05474599 -0.031954546 -0.009749947 0.021103723 0.03271953 0.0077572125 -0.06039373 0.064221755
-0.0069248416 0.053540308 -0.0242885 -0.039734796 -0.016374871 -0.035460502 0.060429163 0.02880829
0.034013003 0.0059457556 0.03892695 0.016803723 0.013869625 0.018451296 -0.061352722 -0.018033702
0.008448429 -0.051871344 0.034365293 -0.03239952 0.05401154 0.00015880167 -0.013402037 0.062778294
00000000: 40e4 6f3b fd05 c1bc 9eca 6c3d 6dd3 b5bb
00000010: 9e7b 29bd b5bb 2b3d 9815 d8bc 1182 6fbc
00000020: 843d 243d cc03 0c3d 829c 753c 75ee 8e3c
00000030: 6401 813c 3acf 31bc bc0b 1bbd db08 653d
00000040: 98b4 e7bc 1673 0e3d 88b0 4c3d 4588 103d
00000050: 14d6 e63b 8935 5c3d 0867 903c 2bb4 40bd
00000060: fc97 d83c a8cb 56bc b462 dcbc ca66 393d
00000070: aeb1 143d dde0 313c 0b7e 72bd 9ac5 903d
00000080: 5982 52bd f07c 12bd e669 8dbc 9820 5bbd
00000090: b19e 633d 7ec2 0d3d 9478 f83c f0d3 f13b
000000a0: 81c7 fa3b 465c 283d 3aa3 d3bc 27b8 37bd
000000b0: ccfa 5a3d 15c9 893d 709e d23b dca0 5b3d
000000c0: 68fe 6bbd d537 903a c2d9 2dbd 85f1 213c
000000d0: 499c a63c 19c4 0f3d f0f3 62bd 6c61 8dbc
000000e0: 56e5 d0bc 4fc6 cf3c bcf5 773d 56b0 54bd
000000f0: 53f8 a43c 3ca1 1cbc 62af 32bd 3c05 7abd
00000100: 2a14 e83b 989d a83c 8557 033d 67cf f13a
00000110: e900 7a3d c86e 5dbc 765d 39bc 2e89 0e3d
00000120: c2f2 4a3d ace9 28bd 2b11 8b3d d3db 123c
00000130: b776 abbb 36aa 6dbd b748 413d 89d4 d13b
00000140: c94b 95bc 8281 c1ba 8a81 1d3d 6795 63bc
00000150: 4648 183d d050 873b 4cbb 2fbc 7038 4e3d
00000160: ecff 323d 58c5 213d 787e 38bd 8c69 27bd
00000170: 93b2 12bd 4373 d73c 6a25 f53c d926 58bd
00000180: c267 e93b 0a68 d43c fa5c 3f3c c203 e43c
00000190: 52ba b1bb 06a1 893d 8cde 54bd c6b7 e0bc
000001a0: 3405 2dbd 8b2c a5ba 8a73 37bd 2280 673d
000001b0: 1dff 353d 377f 563d 507d 863c 3d0c 6c3d
000001c0: b502 05bd 4601 8dbd 5dca 85bd c6ca 453d
000001d0: 04f4 213c 3092 acbc 7329 ce3c 3dca 493d
000001e0: d488 ddbc 5063 cd3c 0ca2 e4bc 5d15 173d
000001f0: 5823 eabc 7c1c 7bbd 8888 2e3d 25fe 1dbc
00000200: 5add 93bb 98a0 98bc cee9 dbbc 8fb0 e1bc
00000210: 68c0 e7bb 2e29 2e3d 8f3b 44bd 0683 ee3b
00000220: 2806 523c b7e7 733d 806e 213b 69b1 4fbd
00000230: 170e 6ebd 8bae 3d3d b760 3dbd 98ce 1a3c
00000240: cea6 3ebd 0b83 893d d24b 1b3d 99f6 b83c
00000250: d04a 99bc dae0 1abd 9d78 113d 17d8 d3bc
00000260: 0914 2abd 732f 1fbc af6c 573d e209 4e3c
00000270: 2307 e8bc d69f 73bd ba51 1fbd 4107 12bc
00000280: 55fb 2a3d 3000 21bc 1490 d4bc 0ce8 c6bc
00000290: 1bf3 11bd ac5d abbc ea7d 4fbc 1408 00bc
000002a0: c47f 03bd 013a 30bd 4599 47bd 8e9d 603d
000002b0: e682 203d 96ce 6c3d 3a3f 163d 50f7 56bc
000002c0: 0ae7 75bd 00a8 2b3d a64d 50bc 883c 353d
000002d0: 0f61 b0bc 6546 d43b 51ef 213d 6dfa 923c
000002e0: 9984 0f3d b046 1cbd 04c9 00bd 5dc1 413d
000002f0: 97a5 3b3d 5c94 a73a 867c d03c 80a0 9b3c
00000300: aaf9 2e3c 2195 30bd 2c9a 59bd c439 4c3c
00000310: 7117 37bd b46e 64bd 98b7 3e3c 3d7d 20bd
00000320: 504c e53b d723 143d 1665 453c fe7b ef3c
00000330: 9436 a73c e7f0 d9bb 7c05 203a bed8 38bc
00000340: 16fd f23c fe40 ea3c 06b7 d5bc f502 3d3d
00000350: af3c 0fbd 00b8 31bc 9a3f 59bd 417b 213d
00000360: 3b20 4d3d d3ee 35bd 287e 653d f4bb c63c
00000370: 028b 0ebd b30b 123d f65c 95bb 58ae bd3a
00000380: 553d 603d c5e2 02bd 3ebe 1fbc b7e1 ac3c
00000390: ea04 063d 3730 fe3b 6a5f 77bd b286 833d
000003a0: c8e9 e2bb 154d 5b3d adf8 c6bc f4c0 22bd
000003b0: 9824 86bc 083f 11bd 9284 773d 5dff eb3c
000003c0: 3851 0b3d 9dd4 c23b de71 1f3d f6a7 893c
000003d0: 6c3d 633c 2c27 973c fe4c 7bbd 6abb 93bc
000003e0: 486b 0a3c 0c77 54bd 9fc2 0c3d 5cb5 04bd
000003f0: 343b 5d3d 0084 2639 3894 5bbc e891 803d

weight f4 [1, 256]
0.015334666 -0.036022913 0.039865807 -0.04003657 -0.04609622 0.033938777 0.05671349 -0.032089468
0.071084045 -0.0538354 0.011428528 0.030695342 0.005332438 -0.029243952 -0.022680683 -0.043385196
-0.046114508 -0.015663227 0.037555523 0.040639527 -0.008938191 -0.023283388 -0.022126175 0.06531949
-0.04449893 -0.03538445 0.03830345 0.06048887 -0.02444442 0.005253834 -0.05318132 0.07073402
-0.002560735 -0.036179367 -0.024403416 -0.003062283 0.012202238 0.04297023 -0.052651465 0.029251553
0.013473347 -0.0011176701 0.023698902 0.009643778 -0.036600187 0.060410883 0.022821058 -0.025583975
-0.015583567 0.019701023 0.019221373 0.034145303 0.035260413 0.025699152 0.02059991 0.06863218
0.009592483 -0.02837602 0.06439594 -0.010063561 0.06749038 0.022836784 0.008152857 0.01835695
0.0038708476 0.051485337 0.059003673 0.00026831683 0.008350233 0.05854437 -0.0392132 -0.043848515
-0.0021874388 -0.03442045 0.048029754 -0.040625323 -0.052583456 0.03764668 -0.014742158 0.023860803
0.014050732 0.017211065 0.010559184 -0.03317307 0.0124441385 0.033836298 0.06903959 -0.037583955
-0.037290238 0.03920651 0.027265653 0.00302994 0.06346136 0.02356044 0.021630516 0.061437014
0.04695335 -0.016091922 -9.536269e-05 0.03689981 -0.031611226 0.059711467 0.06253887 0.017601987
0.026806511 -0.019017298 -0.053843204 0.026265621 -0.037038554 0.041724186 -0.0072129318 0.066747114
0.051574036 -0.0017344856 -0.05084986 0.030065948 0.021672502 0.037909582 0.06736796 -0.042822424
-0.015910432 0.026022598 -0.02693472 0.022153541 0.041389044 -0.022684066 0.05819667 0.049372025
0.0116491215 -0.027910255 -0.032178354 -0.04849142 0.044985533 -0.011450107 0.045078665 -0.014163039
-0.03130421 0.017824512 0.020610841 -0.0038316357 -0.027160764 -0.011226488 -0.047490712 -0.051632293
0.037763774 0.0147767905 -0.04254813 -0.0094100665 0.04965689 0.026430545 -0.046710774 -0.053536255
0.020154089 0.060442924 0.024715075 0.030413592 0.028234957 0.04808639 -0.034050055 -0.04540387
-0.056475736 -0.027694702 -0.05269794 0.05240334 0.055785842 -0.018366154 0.06153381 0.0350744
-0.023270637 -0.012201208 -0.011686134 0.03702956 0.012883622 -0.022902712 0.041990157 -0.034235403
0.05386524 -0.026273102 0.059884973 0.044874936 -0.011867447 0.06609323 0.021994017 -0.03157952
-0.013292712 0.040926173 -0.01108868 -0.010522019 -0.010724671 0.02051655 -0.040115524 0.062387437
-0.016484663 0.001616247 0.01854216 0.022265984 0.042537894 -0.04272698 -0.0020438132 0.0041739885
-0.048865855 0.028289001 0.004135837 0.008693446 0.061241917 -0.032925606 0.051905792 0.06089749
0.049866337 -0.041804433 -0.029967513 0.025632529 0.06017541 -0.056658864 -0.03455142 -0.05370403
0.014413654 -0.011502521 0.023696348 0.031519897 -0.011695741 0.017683223 -0.01944514 0.06339659
-0.046504527 0.06045214 -0.0074834777 0.019566998 -0.04764382 -0.0022860395 -0.026264463 0.011777706
0.013168781 -0.046936188 0.032781217 0.029859923 0.026151804 0.05407977 0.05333198 0.011095373
0.016275652 0.030706553 -0.036123287 0.0699595 -0.05158399 -0.017990261 0.04046154 -0.03541764
0.044791393 0.06628167 0.021319991 -0.05066712 0.054518245 -0.04734399 -0.044086564 0.0321909
00000000: 403e 7b3c c38c 13bd 544a 233d 63fd 23bd
00000010: 64cf 3cbd 6303 0b3d 684c 683d 3f70 03bd
00000020: 8394 913d 8282 5cbd b93e 3b3c cc74 fb3c
00000030: bbbb ae3b 0391 efbc d7cc b9bc adb4 31bd
00000040: 91e2 3cbd 2b50 80bc d2d3 193d a275 263d
00000050: 7e71 12bc cebc bebc f441 b5bc 3ac6 853d
00000060: 8344 36bd 49ef 10bd 14e4 1c3d 2dc3 773d
00000070: aa3f c8bc 5b28 ac3b a8d4 59bd ffdc 903d
00000080: 01d2 27bb d130 14bd ace9 c7bc 95b0 48bb
00000090: e5eb 473c 8d01 303d 10a9 57bd f4a0 ef3c
000000a0: 50bf 5c3c c97e 92ba 3324 c23c f000 1e3c
000000b0: 14ea 15bd 6771 773d 3af3 ba3c 7c95 d1bc
000000c0: 3852 7fbc 0a64 a13c 2476 9d3c f2db 0b3d
000000d0: 396d 103d 0787 d23c 24c1 a83c 078f 8c3d
000000e0: ca29 1d3c d474 e8bc 05e2 833d a2e1 24bc
000000f0: 6538 8a3d 3514 bb3c 9093 053c 5061 963c
00000100: 0cae 7d3b 4ae2 523d d6ad 713d e0ac 8c39
00000110: 6acf 083c 39cc 6f3d 059e 20bd 809a 33bd
00000120: 225b 0fbb 75fc 0cbd d9ba 443d bd66 26bd
00000130: c061 57bd 6833 1a3d 1889 71bc bb77 c33c
00000140: 0b35 663c 38fe 8c3c 6d00 2d3c 7ce0 07bd
00000150: 80e2 4b3c ee97 0a3d a164 8d3d a2f1 19bd
00000160: a6bd 18bd 0197 203d 385c df3c f591 463b
00000170: 08f8 813d d301 c13c 7b32 b13c 61a5 7b3d
00000180: 2852 403d 35d3 83bc 74fd c7b8 4124 173d
00000190: c67a 01bd 0394 743d 6114 803d 0b32 903c
000001a0: 5499 db3c 2aca 9bbc b18a 5cbd 002b d73c
000001b0: bdb5 17bd fbe6 2a3d 755a ecbb b6b2 883d
000001c0: 4c3f 533d ae57 e3ba f147 50bd dd4c f63c
000001d0: 888a b13c 1447 1b3d 37f8 893d 9166 2fbd
000001e0: 9856 82bc 582d d53c 34a6 dcbc 587b b53c
000001f0: 8f87 293d efd3 b9bc a25f 6e3d 523a 4a3d
00000200: f5db 3e3c 0ca4 e4bc 73cd 03bd f09e 46bd
00000210: c042 383d 3b99 3bbc 68a4 383d 170c 68bc
00000220: d838 00bd b604 923c 11d8 a83c 2e1c 7bbb
00000230: 4080 debc 4eef 37bc 9f85 42bd 627c 53bd
00000240: 30ae 1a3d 5a1a 723c f346 2ebd ae2c 1abc
00000250: 0665 4b3d df84 d83c cc53 3fbd d548 5bbd
00000260: 301a a53c 0093 773d 4577 ca3c ed25 f93c
00000270: ff4c e73c 3cf6 443d 1278 0bbd 69f9 39bd
00000280: 1a53 67bd 00e0 e2bc ccd9 57bd e2a4 563d
00000290: b27f 643d 9e74 96bc e00a 7c3d 2daa 0f3d
000002a0: 10a2 bebc 93e7 47bc 3377 3fbc 4fac 173d
000002b0: d415 533c 789e bbbc dffd 2b3d 6c3a 0cbd
000002c0: cca1 5c3d b03a d7bc f249 753d c8ce 373d
000002d0: ae6f 42bc e35b 873d cc2c b43c 8759 01bd
000002e0: adc9 59bc 34a2 273d 4bad 35bc 8c64 2cbc
000002f0: 88b6 2fbc 5312 a83c 2d50 24bd f889 7f3d
00000300: d80a 87bc 40d8 d33a bae5 973c 2767 b63c
00000310: 373c 2e3d 7c02 2fbd 7ff1 05bb f4c5 883b
00000320: 9027 48bd 56be e73c ea85 873b f56e 0e3c
00000330: ced8 7a3d 00dd 06bd 2b9b 543d a56f 793d
00000340: a540 4c3d 203b 2bbd 6e7e f5bc 4ffb d13c
00000350: 7e7a 763d 2013 68bd ca85 0dbd c2f8 5bbd
00000360: 3f27 6c3c 1275 3cbc d81e c23c 021b 013d
00000370: 7e9f 3fbc 68dc 903c 6a4b 9fbc 12d6 813d
00000380: 887b 3ebd aa9c 773d f637 f5bb f84a a03c
00000390: 2b26 43bd 61d1 15bb 9228 d7bc 48f7 403c
000003a0: dfc1 573c 2940 40bd 9945 063d cc9c f43c
000003b0: 4f3c d63c c082 5d3d a272 5a3d 5ec9 353c
000003c0: 8454 853c 4f8c fb3c 03f6 13bd ed46 8f3d
000003d0: bc49 53bd 5060 93bc 00bb 253d 1612 11bd
000003e0: 2e77 373d afbe 873d 43a7 ae3c 5388 4fbd
000003f0: 864e 5f3d c6eb 41bd 1d94 34bd 9bda 033d
