model/rlbd_continuous_critic.pt (torch_old, 11951 bytes, 5 tensors)

weight f4 [256, 3]
-0.1453714 0.4694333 -0.3276761 0.10699247 0.33960822 0.46230283 0.5635264 -0.57228017
0.41204166 -0.40562436 -0.22189747 -0.46634457 0.022506153 0.13412006 0.117262624 0.50418633
0.021791298 0.5308925 -0.07504297 0.1436457 -0.52597106 -0.3728759 0.15869583 -0.4231424
0.2385796 0.22252524 -0.31516123 0.29521313 -0.55852693 0.13130793 0.24582286 -0.5448167
-0.49642816 0.5030494 -0.4221873 -0.24748671 0.13328953 -0.43819702 0.1445616 -0.054558747
-0.25681764 0.33542523 0.15719223 0.12043317 -0.3117232 -0.34775406 0.41893646 0.107406184
0.00015820959 0.455302 0.4269806 -0.17055757 0.23453996 0.092417516 -0.5705599 0.48177016
-0.30295864 0.08224519 0.13857044 0.1955337 0.3974365 -0.47302797 -0.19716002 -0.515502
-0.54345286 0.23050256 0.086266935 -0.1571555 0.49833882 -0.40476948 0.141211 0.4712403
-0.43171614 -0.0752784 -0.3942843 -0.08199005 0.08859367 -0.32172844 -0.11666332 -0.53238684
-0.27162412 -0.24662311 -0.03939449 -0.15005195 0.35143173 -0.26872241 -0.14493687 0.5711426
0.27488318 0.55353516 0.07652 0.34965524 0.2778286 0.1571829 0.40210435 0.119044885
0.42941093 0.19342443 0.0792109 0.47863898 -0.22614804 0.42958114 -0.28946224 -0.012708661
0.27965233 -0.5021339 0.20777537 0.1370085 0.21300611 0.03624889 -0.31768918 -0.55304927
-0.4798592 0.02257144 -0.457004 -0.023233218 -0.33405998 0.22228134 -0.2575302 -0.3068918
-0.24292806 0.13054845 0.15249462 0.2183852 -0.12639308 -0.43463922 0.5307566 0.30668727
-0.45007148 -0.51986593 -0.2279923 0.40830505 -0.11610539 -0.5378036 0.11353331 -0.3349219
-0.21747753 0.33616406 0.04820476 -0.5699411 0.26457447 -0.5635536 -0.44932345 -0.3374088
0.36986807 -0.1484917 -0.48847717 -0.18868947 0.36979944 -0.4817085 -0.35857368 0.1758714
0.30960757 0.1840628 0.093268394 -0.03467605 -0.36356336 -0.513622 -0.52144563 -0.42101285
-0.34328523 0.49039224 0.52996385 -0.32936022 -0.12336136 0.5437995 0.41869375 0.3628263
0.2579205 0.31113055 0.33004144 -0.2841106 0.00061435474 0.42535374 0.5689464 -0.23155719
-0.032970995 0.56218505 0.10030693 0.55917066 0.24397478 -0.34587255 0.50195587 -0.2493326
-0.45273644 0.037152648 -0.54925066 -0.46198204 -0.37760547 0.4874813 0.31206712 -0.3115144
-0.12640068 0.14996934 -0.5326944 0.18575895 -0.06032175 -0.559014 -0.19363707 -0.19523534
-0.3998341 0.01943295 0.5509633 -0.15799102 -0.086652346 0.019910514 -0.3782259 0.21309765
-0.100471854 -0.30389053 -0.23210715 -0.14802413 0.5721739 -0.14296795 -0.2821722 -0.109976515
-0.38272753 0.42077726 0.13066019 0.141003 0.44353896 -0.47916162 -0.17058487 -0.06493165
0.1791656 0.25416458 -0.30553508 0.39629388 0.5220018 0.13373105 0.09596676 0.018325547
0.43721226 -0.5110391 -0.40534267 -0.26353598 0.56722575 0.54728943 -0.3358781 0.17770523
0.17697817 0.3969753 -0.47846833 0.14872137 -0.30271256 0.41007715 0.059132695 0.038757563
-0.020196557 -0.04591446 0.5339097 -0.18533438 0.50066686 -0.38536313 -0.5136417 0.15379913
00000000: 3edc 14be 9059 f03e 29c5 a7be de1e db3d
00000010: 21e1 ad3e f5b2 ec3e 4443 103f f480 12bf
00000020: 20f7 d23e ffad cfbe 1739 63be b7c4 eebe
00000030: d35e b83c c556 093e 6327 f03d 5b12 013f
00000040: aa83 b23c 92e8 073f 21b0 99bd dc17 133e
00000050: 0aa6 06bf 97e9 bebe 2981 223e 1fa6 d8be
00000060: 364e 743e a8dd 633e d05c a1be 2d26 973e
00000070: 9ffb 0ebf 9675 063e fdb8 7b3e 1b79 0bbf
00000080: d52b febe d8c7 003f ef28 d8be 286d 7dbe
00000090: 0d7d 083e 5c5b e0be f507 143e fe78 5fbd
000000a0: 9a7d 83be dbbc ab3e 00f7 203e aaa5 f63d
000000b0: 2f9a 9fbe d20c b2be d77e d63e c6f7 db3d
000000c0: 10e5 2539 581d e93e 349d da3e a5a6 2ebe
000000d0: 3e2b 703e 6545 bd3d 3710 12bf 94aa f63e
000000e0: 651d 9bbe 2b70 a83d 69e5 0d3e fc39 483e
000000f0: cc7c cb3e b930 f2be 51e4 49be f0f7 03bf
00000100: ba1f 0bbf dd08 6c3e b8ac b03d 5fed 20be
00000110: 4426 ff3e f23d cfbe 9e99 103e 6946 f13e
00000120: e609 ddbe 902b 9abd a2df c9be 66ea a7bd
00000130: 9970 b53d 97b9 a4be 2eed eebd 814a 08bf
00000140: 5112 8bbe c58a 7cbe 1e5c 21bd 38a7 19be
00000150: dcee b33e fc95 89be 556a 14be 6736 123f
00000160: 7dbd 8c3e 7bb4 0d3f 85b6 9c3d 0306 b33e
00000170: 8d3f 8e3e 8ef4 203e 9fe0 cd3e cecd f33d
00000180: c0db db3e 0e11 463e 5339 a23d 2b10 f53e
00000190: 5a93 67be 0ff2 db3e 6534 94be fd37 50bc
000001a0: 972e 8f3e d98b 00bf 11c3 543e f54b 0c3e
000001b0: 461e 5a3e b779 143d 28a8 a2be a394 0dbf
000001c0: 1bb0 f5be bee7 b83c 6efc e9be 9753 bebc
000001d0: e909 abbe b89d 633e 00db 83be ec20 9dbe
000001e0: 22c2 78be 7eae 053e 8d27 1c3e 5fa0 5f3e
000001f0: 306d 01be 0889 debe aadf 073f 1d06 9d3e
00000200: c56f e6be ef15 05bf d076 69be 5c0d d13e
00000210: aac8 edbd 7fad 09bf 2784 e83d e27a abbe
00000220: 6eb2 5ebe b21d ac3e 5b72 453d a9e7 11bf
00000230: 4e76 873e 0c45 10bf b90d e6be d9c0 acbe
00000240: 595f bd3e 350e 18be ae19 fabe d037 41be
00000250: 5a56 bd3e 7fa2 f6be f896 b7be a217 343e
00000260: e284 9e3e f57a 3c3e 8003 bf3d 7908 0ebd
00000270: fa24 babe bb7c 03bf 767d 05bf ff8e d7be
00000280: 15c3 afbe b114 fb3e b6ab 073f e7a1 a8be
00000290: e1a4 fcbd 7236 0b3f 075f d63e 5ec4 b93e
000002a0: 280e 843e 814c 9f3e 31fb a83e f276 91be
000002b0: a60c 213a f7c7 d93e 79a6 113f 541d 6dbe
000002c0: 980c 07bd 5ceb 0f3f b86d cd3d cf25 0f3f
000002d0: 86d4 793e 3516 b1be 2e80 003f 0c51 7fbe
000002e0: 12cd e7be 602d 183d b19b 0cbf e988 ecbe
000002f0: 8155 c1be 2697 f93e 43c7 9f3e d17e 9fbe
00000300: 2e6f 01be 9091 193e a95e 08bf 9837 3e3e
00000310: f013 77bd 8b1b 0fbf cc48 46be c6eb 47be
00000320: 0eb7 ccbe da31 9f3c ee0b 0d3f 66c8 21be
00000330: c976 b1bd 601b a33c d3a6 c1be 4536 5a3e
00000340: 30c4 cdbd 8a97 9bbe 7fad 6dbe a393 17be
00000350: fd79 123f 3166 12be e078 90be 5e3b e1bd
00000360: ddf4 c3be 1e70 d73e c9cb 053e 1763 103e
00000370: 8a17 e33e ac54 f5be cdad 2ebe e3fa 84bd
00000380: 3077 373e dc21 823e 186f 9cbe 08e7 ca3e
00000390: e9a1 053f cbf0 083e 388a c43d 751f 963c
000003a0: 49da df3e 75d3 02bf 1389 cfbe 30ee 86be
000003b0: b535 113f 291b 0c3f 37f8 abbe 5cf8 353e
000003c0: c439 353e 5940 cb3e cdf9 f4be 6a4a 183e
000003d0: 24fd 9abe a2f5 d13e 2035 723d 40c0 1e3d
000003e0: 4073 a5bc cd10 3cbd 4eae 083f 4cc8 3dbe
000003f0: b42b 003f 514e c5be 067e 03bf 857d 1d3e

bias f4 [256]
-0.5336941 -0.37570313 0.15880318 0.26926595 -0.12277921 0.54862034 -0.5434811 -0.065233804
0.06083325 0.056664284 -0.11016815 0.16343796 -0.119658545 0.5655173 -0.23629114 -0.5362877
-0.56862384 -0.26729017 -0.51038194 -0.47854933 -0.4642823 -0.4867186 -0.30608964 0.3807281
-0.04972154 -0.3547021 0.44004044 0.14193572 -0.1702681 0.19440396 0.13634671 -0.36739528
-0.5582832 0.46921828 0.082740486 -0.2010646 0.17811815 0.041384526 -0.45664847 -0.26441523
0.5179601 0.32630527 -0.17996272 -0.29328856 0.19901995 -0.14604202 -0.5820251 0.19161028
-0.2299879 -0.0019531408 -0.44281647 0.4445961 -0.39200845 0.30071193 -0.29455465 -0.30368578
-0.007124237 0.18990201 -0.5217781 0.30018592 -0.56268466 -0.18881676 0.023145318 0.54318243
-0.25809988 -0.33459547 -0.40107393 0.44904953 0.45756337 0.5695217 -0.118074894 0.04236378
-0.3373199 0.23591487 0.57116127 -0.04448965 -0.22036777 0.2703642 0.1756639 -0.14217573
-0.42863953 -0.004240534 -0.06990445 -0.17711753 0.29239988 -0.02848944 0.4493718 0.24507701
-0.45902407 -0.054543607 -0.13149513 0.21979259 -0.5150365 -0.52874506 -0.38530707 0.49260145
-0.13595393 0.06849931 0.43089962 -0.19832149 0.24591567 0.55982274 -0.4718765 -0.5151191
0.41297877 0.33393618 0.29470536 0.14926706 -0.22750524 0.17684445 0.16575155 -0.17369542
-0.46320024 -0.08909176 -0.18397754 -0.34559345 0.18129337 0.21423109 -0.038828075 0.2888826
0.034330703 0.16418499 -0.37949565 0.27516314 0.5222568 -0.5282674 0.08791039 0.29293355
0.254471 0.33197448 0.35036212 -0.11481634 -0.4170981 0.16061603 0.1511426 0.2572139
0.053756293 0.1614894 -0.0018533221 -0.4576728 0.029779803 0.26843995 0.57056665 -0.071582556
0.03320361 0.11689688 0.43599725 -0.521939 0.3464069 -0.0706775 0.06882706 0.31333497
0.51497114 0.030657826 0.19680734 0.0015538281 -0.254136 -0.47698894 -0.08932111 0.5351504
-0.07030436 0.447439 -0.028290743 0.117489696 -0.45513198 -0.3448494 0.44870803 0.05467906
-0.42304286 -0.42081192 0.42796394 -0.19283757 0.30134487 0.10434312 0.29701692 -0.5710607
-0.15315573 0.53589225 -0.38157436 -0.35107917 0.45837453 0.09280822 -0.028433448 0.2512637
0.36062816 0.53247076 -0.13381837 0.45920846 -0.2307115 -0.072911486 -0.056246016 -0.19986089
-0.113709696 -0.099031605 0.23947072 -0.41391358 -0.5684996 0.011088729 0.19241057 0.017761111
-0.4225254 -0.11752489 -0.047870588 0.5397725 0.38300288 0.24840295 0.28458637 -0.24224827
-0.4881523 -0.33828717 -0.24892962 0.38981825 -0.4437321 0.20901337 -0.15492082 0.19231111
-0.48280367 -0.35401973 0.47043863 -0.19483234 0.34505424 -0.2603962 0.35360488 -0.19200596
0.32037076 -0.03387695 0.08013275 -0.44118282 0.21667449 0.061316933 -0.14738353 0.3515364
-0.13657813 -0.41985163 0.14520518 -0.56529397 -0.49587175 0.5016089 -0.5271553 -0.36700255
-0.027812827 -0.06622073 -0.441003 -0.010499806 0.3187978 0.30709764 -0.21843922 -0.037091997
0.053437363 0.33188435 0.25640798 0.36829063 -0.43492144 -0.35119686 0.3515621 0.39272606
00000000: 2da0 08bf 295c c0be 4d9d 223e 3add 893e
00000010: ab73 fbbd 6272 0c3f 9421 0bbf 4d99 85bd
00000020: 492c 793d cf18 683d d79f e1bd 485c 273e
00000030: 8a0f f5bd bec5 103f 4ef6 71be 274a 09bf
00000040: 5591 11bf 42da 88be 64a8 02bf 6b04 f5be
00000050: 69b6 edbe 2e33 f9be c8b7 9cbe cbee c23e
00000060: d0a8 4bbd 839b b5be fb4c e13e 9957 113e
00000070: c35a 2ebe d511 473e 799e 0b3e 3c1b bcbe
00000080: a6eb 0ebf 613d f03e d873 a93d e1e3 4dbe
00000090: 9b64 363e d282 293d d4cd e9be 6f61 87be
000000a0: 0899 043f 7c11 a73e 2648 38be eb29 96be
000000b0: e3cb 4b3e 0a8c 15be 99ff 14bf 7c35 443e
000000c0: f381 6bbe 4400 00bb d7b8 e2be 1aa2 e33e
000000d0: 55b5 c8be eaf6 993e decf 96be b47c 9bbe
000000e0: 6e72 e9bb ac75 423e 4093 05bf f8b1 993e
000000f0: 1a0c 10bf 2e59 41be 409b bd3c 010e 0b3f
00000100: ab25 84be 1950 abbe 9059 cdbe d2e9 e53e
00000110: bf45 ea3e 2dcc 113f 40d1 f1bd a585 2d3d
00000120: 32b5 acbe ab93 713e a037 123f c73a 36bd
00000130: 17a8 61be 2d6d 8a3e 3de1 333e 8496 11be
00000140: a476 dbbe 2df4 8abb 102a 8fbd 4c5e 35be
00000150: 70b5 953e b062 e9bc 1014 e63e 78f5 7a3e
00000160: 3405 ebbe 1e69 5fbd a9a6 06be 4f11 613e
00000170: 6fd9 03bf d65b 07bf f846 c5be 4236 fc3e
00000180: 8237 0bbe 5e49 8c3d e09e dc3e ca14 4bbe
00000190: 51d1 7b3e 8b50 0f3f cc99 f1be d8de 03bf
000001a0: f471 d33e aff9 aa3e 9fe3 963e 77d9 183e
000001b0: 22f7 68be b616 353e c6ba 293e 36dd 31be
000001c0: 9528 edbe be75 b6bd 9c64 3cbe a0f1 b0be
000001d0: f8a4 393e 655f 5b3e 300a 1fbd 6ce8 933e
000001e0: 5a9e 0c3d 1c20 283e 414d c2be 2fe2 8c3e
000001f0: 9fb2 053f 883c 07bf 5d0a b43d 63fb 953e
00000200: 064a 823e 8ff8 a93e aa62 b33e d424 ebbd
00000210: e28d d5be 8778 243e 20c5 1a3e 8ab1 833e
00000220: 8f2f 5c3d 7a5d 253e 2ceb f2ba 1754 eabe
00000230: c6f4 f33c f670 893e a810 123f e099 92bd
00000240: 8200 083d a267 ef3d 083b df3e cb9d 05bf
00000250: 3f5c b13e 5dbf 90bd 34f5 8c3d 716d a03e
00000260: 26d5 033f 1f26 fb3c dd87 493e d2a9 cb3a
00000270: 1d1e 82be e537 f4be fced b6bd 9eff 083f
00000280: bbfb 8fbd b916 e53e fdc1 e7bc 709e f03d
00000290: 0f07 e9be 1a90 b0be 0fbd e53e 26f7 5f3d
000002a0: 1399 d8be a974 d7be 171e db3e 3677 45be
000002b0: e049 9a3e d8b1 d53d 9a12 983e 0931 12bf
000002c0: dbd4 1cbe 3c30 093f b75d c3be a6c0 b3be
000002d0: 11b0 ea3e 3c12 be3d 43ed e8bc a3a5 803e
000002e0: 41a4 b83e 0150 083f af07 09be 5f1d eb3e
000002f0: a33f 6cbe 9e52 95bd 3962 66bd 55a8 4cbe
00000300: a1e0 e8bd 15d1 cabd d037 753e 7bec d3be
00000310: 3189 11bf 80ad 353c 4707 453e c07f 913c
00000320: 4055 d8be e4b0 f0bd f313 44bd 882e 0a3f
00000330: f418 c43e 585d 7e3e 4eb5 913e ee0f 78be
00000340: 19ef f9be fa33 adbe 68e7 7ebe 4296 c73e
00000350: db30 e3be 9a07 563e 90a3 1ebe 34ed 443e
00000360: 0b32 f7be 1342 b5be 55dd f03e 2182 47be
00000370: f3aa b03e a752 85be b30b b53e 369d 44be
00000380: a307 a43e 8fc2 0abd a41c a43d b7e2 e1be
00000390: ebdf 5d3e 7727 7b3d b5eb 16be 94fc b33e
000003a0: 23db 0bbe cbf6 d6be abb0 143e 1bb7 10bf
000003b0: e7e2 fdbe 7169 003f a6f3 06bf c2e7 bbbe
000003c0: bad7 e3bc bc9e 87bd 25cb e1be 6107 2cbc
000003d0: 7739 a33e e73b 9d3e 88ae 5fbe c7ed 17bd
000003e0: 23e1 5a3d bfec a93e e847 833e 9790 bc3e
000003f0: 06ae debe 13d0 b3be f3ff b33e 6413 c93e

weight f4 [256, 1]
0.62698984 0.010147654 -0.81614393 0.039554 0.77517873 0.5813355 0.08748698 0.78589505
-0.19271344 0.5231177 0.5187873 -0.14524515 -0.8278294 -0.7407062 -0.47234797 -0.77299166
-0.25063068 0.34491327 0.47300565 0.18316327 0.07655672 -0.21839893 0.9365705 -0.8079908
-0.19066875 -0.5430697 0.5585917 -0.46032798 0.6522382 0.51811767 -0.66497505 0.13934556
-0.006429073 0.6492784 0.70489395 0.47315606 0.17208643 0.1203478 -0.43999818 -0.97754514
0.5736522 -0.111516275 -0.9062435 -0.73235714 -0.93811285 -0.95310605 -0.48148263 -0.39889657
0.3847658 -0.14854908 -0.47681528 -0.015763223 -0.22285402 -0.9333291 0.9453316 0.029824106
0.76407194 -0.052083775 -0.78645563 0.4322563 -0.7147763 -0.1737622 -0.0017151833 -0.16821699
-0.93613803 -0.8447274 -0.5402142 -0.9724827 0.7961679 -0.2745529 -0.8057339 -0.91067785
0.0609407 0.41487858 0.7709246 -0.66549724 0.05766002 -0.74492157 -0.09290339 0.31617498
0.09116008 -0.7374778 -0.52927566 0.84546846 0.74327826 -0.38973773 0.06118981 0.8726515
0.46555626 -0.26143786 -0.43794835 0.6802835 -0.7128732 -0.9604875 -0.91748583 0.7453684
0.93743765 -0.8075491 -0.57879484 0.066506155 0.94983166 -0.77198404 -0.67046726 0.23213893
-0.40110683 -0.32516998 -0.19984405 -0.7281779 -0.032325983 -0.6461247 0.8023458 0.7027709
-0.7013037 0.4185417 -0.86526716 0.5066709 -0.34309807 0.9050554 -0.45476663 0.4917525
0.24344173 -0.6596189 0.10341661 0.3004192 -0.9743123 -0.20110628 -0.61953485 -0.047771227
0.11583661 0.55563325 0.1761528 -0.24715203 -0.78042316 -0.21596631 0.3547251 0.41886288
0.6535747 0.10757602 -0.57219714 0.5186753 -0.31299865 0.26529002 0.04793465 -0.66360056
0.42672512 0.6340958 -0.6974726 0.16026223 0.31272167 -0.7892398 -0.084350124 0.5275229
-0.6962894 -0.757372 0.0137818735 0.34982514 -0.4234608 0.67210996 -0.24529317 -0.34931156
0.7663183 0.89289665 -0.30271158 -0.16589913 0.061508656 0.9099638 0.45509905 0.17929223
0.9260223 0.78364795 -0.92555183 0.06962355 -0.34558865 -0.87874746 -0.9932319 0.5905372
0.045286458 0.18550956 -0.8490517 -0.50122297 0.58490074 0.86462826 -0.8780126 0.7308134
0.47969383 0.8871079 -0.5983228 0.017443122 -0.4282847 0.69556206 -0.27470282 -0.538249
0.94407165 0.56729704 -0.13353568 0.09133938 0.58107895 0.0068668127 -0.8686949 -0.19778341
0.45887336 -0.073522635 -0.5309279 0.33963978 0.75415456 0.5343616 0.4569971 -0.23046531
-0.20112737 0.25921255 0.3360972 0.34105143 0.19466177 -0.7867001 -0.8611479 -0.508279
-0.29426765 0.44668072 0.5506785 -0.2774942 0.7382394 -0.00591689 0.27291217 -0.5208323
0.743862 -0.34879518 -0.27051106 -0.42989305 -0.4542685 0.6485396 -0.27246022 -0.23248526
0.6852362 0.4392762 -0.38599136 -0.23347679 -0.615407 0.5397554 0.076923594 0.1212274
-0.20587523 0.11589889 -0.27204874 0.9539129 -0.87871933 -0.4960794 -0.21010937 0.7074719
-0.24294315 0.27067465 -0.46170977 0.54510677 -0.08282411 0.032057226 -0.37616095 -0.30313006
00000000: 6882 203f 5942 263c cfee 50bf 6003 223d
00000010: 1d72 463f 67d2 143f 602c b33d 6b30 493f
00000020: ac56 45be 0beb 053f 3fcf 043f 25bb 14be
00000030: a1ec 53bf ec9e 3dbf 98d7 f1be c8e2 45bf
00000040: aa52 80be 7998 b03e cc2d f23e 278f 3b3e
00000050: c5c9 9c3d f8a3 5fbe 16c3 6f3f 7cd8 4ebf
00000060: ab3e 43be 9e06 0bbf deff 0e3f 1cb0 ebbe
00000070: 15f9 263f 5ca3 043f ce3b 2abf 9ab0 0e3e
00000080: f9aa d2bb 1c37 263f ee73 343f 8341 f23e
00000090: 6d37 303e e878 f63d 7147 e1be 6640 7abf
000000a0: dfda 123f a562 e4bd 93ff 67bf c27b 3bbf
000000b0: 2a28 70bf c2fe 73bf e484 f6be 2c3c ccbe
000000c0: 0600 c53e 401d 18be 2221 f4be e021 81bc
000000d0: d833 64be a8ee 6ebf 4001 723f af51 f43c
000000e0: 389a 433f cc55 55bd 2855 49bf b350 dd3e
000000f0: 94fb 36bf b8ee 31be 00d0 e0ba 1341 2cbe
00000100: bea6 6fbf 0e40 58bf 7a4b 0abf a0f4 78bf
00000110: a9d1 4b3f 3392 8cbe 9444 4ebf 2f22 69bf
00000120: f59c 793d f76a d43e 515b 453f 075e 2abf
00000130: ea2c 6c3d 2eb3 3ebf 2244 bebd b0e1 a13e
00000140: 23b2 ba3d 58cb 3cbf 9c7e 07bf 9f70 583f
00000150: 7c47 3e3f b48b c7be 2ba2 7a3d 1766 5f3f
00000160: 645d ee3e 2fdb 85be c43a e0be 0f27 2e3f
00000170: dc7e 36bf 82e2 75bf 5ae0 6abf 77d0 3e3f
00000180: eafb 6f3f 8abb 4ebf e62b 14bf 6134 883d
00000190: 2b28 733f bfa0 45bf bea3 2bbf d4b5 6d3e
000001a0: e05d cdbe ae7c a6be eba3 4cbe de69 3abf
000001b0: 4068 04bd 6e68 25bf 8966 4d3f cbe8 333f
000001c0: a488 33bf 194b d63e 2682 5dbf 2fb5 013f
000001d0: 8daa afbe b6b1 673f 2cd7 e8be fcc6 fb3e
000001e0: ca48 793e c9dc 28bf 16cc d33d 8cd0 993e
000001f0: 886c 79bf ceee 4dbe d699 1ebf c3ab 43bd
00000200: bf3b ed3d fb3d 0e3f 6661 343e 6c15 7dbe
00000210: d0c9 47bf 4626 5dbe 879e b53e 3275 d63e
00000220: ac50 273f d150 dc3d 837b 12bf e8c7 043f
00000230: 5c41 a0be 18d4 873e 2057 443d bae1 29bf
00000240: b77b da3e 1a54 223f 908d 32bf c81b 243e
00000250: 0e1d a03e 9f0b 4abf c2bf acbd be0b 073f
00000260: 0640 32bf 22e3 41bf 5ecd 613c 481c b33e
00000270: dbcf d8be 660f 2c3f 222e 7bbe f7d8 b2be
00000280: 702d 443f e094 643f 03fd 9abe 76e1 29be
00000290: 80f0 7b3d 63f3 683f be02 e93e 6298 373e
000002a0: cc0f 6d3f 279d 483f f7f0 6cbf cb96 8e3d
000002b0: fff0 b0be 98f5 60bf 7244 7ebf 722d 173f
000002c0: 4b7e 393d 38f6 3d3e 745b 59bf 2650 00bf
000002d0: 0ebc 153f 4758 5d3f 6fc5 60bf 9616 3b3f
000002e0: 6e9a f53e 8119 633f af2b 19bf e1e4 8e3c
000002f0: 2248 dbbe 5b10 323f d9a5 8cbe b0ca 09bf
00000300: aeae 713f 613a 113f 94bd 08be 2410 bb3d
00000310: 97c1 143f 0003 e13b ca62 5ebf bc87 4abe
00000320: 73f1 ea3e 0993 96bd e4ea 07bf 44e5 ad3e
00000330: 4610 413f eccb 083f 86fb e93e 19ff 6bbe
00000340: 55f4 4dbe 82b7 843e ef14 ac3e 4b9e ae3e
00000350: 6a55 473e 2e65 49bf 3074 5cbf 931e 02bf
00000360: 40aa 96be 56b3 e43e 44f9 0c3f b813 8ebe
00000370: 42fd 3c3f 79e2 c1bb 25bb 8b3e 4455 05bf
00000380: bd6d 3e3f 4895 b2be 6d80 8abe f11a dcbe
00000390: e195 e8be b106 263f e87f 8bbe 9e10 6ebe
000003a0: a46b 2f3f cfe8 e03e a9a0 c5be 8a14 6fbe
000003b0: 508b 1dbf 692d 0a3f 1e8a 9d3d 1246 f83d
000003c0: f5d0 52be 665c ed3d f949 8bbe a333 743f
000003d0: c0f3 60bf 1efe fdbe e926 57be e11c 353f
000003e0: 17c6 78be de95 8a3e 3965 ecbe 1e8c 0b3f
000003f0: b09f a9bd 704e 033d 2b98 c0be dd33 9bbe

bias f4 [256]
-0.45583412 0.7874562 -0.8977696 0.2172586 -0.1623226 0.4242419 0.23634276 0.69982594
-0.0996626 -0.77458256 0.40005428 0.2415673 0.92886066 0.18518347 -0.86203396 0.9813865
-0.9374197 0.10799386 -0.9917127 -0.9033544 0.072190695 -0.41599965 -0.30618644 -0.93780226
-0.24373779 0.28610498 -0.012150848 0.29652128 0.6932851 -0.809463 -0.8638148 0.68620384
-0.18821263 0.6900166 0.780869 -0.9863072 -0.32400438 0.6697576 0.945959 -0.72654057
-0.86408734 -0.1658896 -0.81392014 0.8926929 0.004716433 -0.8709198 0.5377793 -0.6918005
0.76489496 -0.8986545 -0.40081814 -0.18907622 -0.9011787 0.4730428 -0.39053395 0.16666773
-0.8115798 -0.43460807 0.04111588 0.89866996 0.6351827 -0.16701841 -0.74946654 -0.21901408
-0.6780635 -0.4384359 -0.7023325 0.80673087 -0.011980904 -0.42262754 -0.9793566 0.646691
-0.41777223 -0.635645 0.8864743 -0.55627525 0.48266828 -0.96826124 -0.8762159 0.27642632
0.355569 0.9926661 -0.4717012 -0.07895651 0.5580422 -0.94220185 0.442159 -0.704201
-0.4087975 -0.8136637 -0.78174245 -0.04553223 -0.5042006 -0.22215998 0.731447 -0.49606037
-0.5956267 -0.65232235 -0.822683 0.8739056 -0.3382523 0.3663006 0.11492146 -0.95599437
-0.93007135 0.9105608 0.61165017 -0.60495275 0.61805296 -0.15942383 -0.106007814 0.59337837
0.74697477 -0.73343045 -0.67758095 0.20159957 -0.24169827 -0.2795062 -0.017789006 0.120152
0.27462858 -0.2833589 -0.93740976 -0.6274383 -0.2610512 -0.32183143 -0.0069364053 0.7780531
-0.17299174 0.06321697 -0.22282735 -0.5116039 -0.053987265 0.12044762 -0.15805854 -0.3184663
-0.8623274 -0.47862473 0.47290185 0.043230865 -0.3994096 -0.8065212 -0.7700426 -0.6711805
-0.14630923 -0.99320984 0.34840062 0.7904872 0.6658664 0.9305566 -0.49799407 -0.5335451
-0.44940016 -0.017847018 -0.46596512 -0.48950458 0.9469487 0.26631683 0.39567834 -0.10109309
0.9984055 0.6847396 -0.24053802 -0.039261557 0.4008888 0.91177326 -0.3062849 -0.09127674
-0.042202357 -0.044598438 0.38578138 0.08952232 -0.13654341 -0.71311843 -0.81878877 -0.64913994
0.49900958 -0.3056128 -0.10942155 -0.4675671 -0.6307477 -0.078244194 0.8352585 -0.91856045
-0.75264055 0.20194638 0.47683197 -0.34719864 0.92608637 -0.24504444 0.15807036 -0.58342505
0.023959346 -0.8630645 -0.76995933 0.5079895 -0.664301 -0.3503567 0.5754751 -0.5799145
-0.44539088 0.4941448 -0.21896398 -0.1950087 0.8577324 -0.6623198 0.58260787 0.1612413
0.8784668 0.9453517 -0.85732603 -0.69078594 0.19170305 -0.43568552 -0.8629937 -0.783344
0.8405383 -0.67777807 0.4999878 -0.66992944 0.36054626 0.7481495 0.3027354 0.62897605
-0.1904121 -0.5507315 0.9757329 -0.06651593 0.68673956 0.007890728 0.48241717 -0.6310803
0.3389362 -0.28385168 -0.383596 0.24288759 -0.8611758 0.7997492 0.7693768 0.2613268
-0.9542159 -0.70874274 0.8958124 0.978688 -0.24439895 -0.35797095 0.24325691 0.70154727
0.75357413 -0.45961663 0.9256949 -0.73692137 0.90419054 0.76807684 -0.3646135 0.4723863
00000000: 1763 e9be bb96 493f 3ad4 65bf 0a79 5e3e
00000010: e537 26be 3c36 d93e d603 723e cb27 333f
00000020: e81b ccbd 0b4b 46bf ead3 cc3e 6b5d 773e
00000030: d0c9 6d3f bca0 3d3e 42ae 5cbf 253c 7b3f
00000040: bdfa 6fbf e32b dd3d e2e0 7dbf 3c42 67bf
00000050: b7d8 933d e8fd d4be 78c4 9cbe cf13 70bf
00000060: 6696 79be 5a7c 923e 5a14 47bc a3d1 973e
00000070: 227b 313f f838 4fbf f722 5dbf 0eab 2f3f
00000080: d0ba 40be eea4 303f 08e7 473f a17e 7cbf
00000090: e7e3 a5be 3c75 2b3f 5e2a 723f 90fe 39bf
000000a0: d434 5dbf f7de 29be 125d 50bf 8687 643f
000000b0: 4f8c 9a3b 9af4 5ebf e7ab 093f d619 31bf
000000c0: 28d0 433f 390e 66bf 0938 cdbe 329d 41be
000000d0: a6b3 66bf aa32 f23e 11f4 c7be f2aa 2a3e
000000e0: b2c3 4fbf f384 debe 2069 283d 3c0f 663f
000000f0: 559b 223f e006 2bbe 0add 3fbf 3a45 60be
00000100: 9295 2dbf ac7a e0be 10cc 33bf ea85 4e3f
00000110: 8e4b 44bc a362 d8be 1db7 7abf 8b8d 253f
00000120: 3ee6 d5be a1b9 22bf fbef 623f 0e68 0ebf
00000130: 4c20 f73e f8df 77bf af4f 60bf c087 8d3e
00000140: 240d b63e 5e1f 7e3f d282 f1be f3b3 a1bd
00000150: dbdb 0e3f 2434 71bf aa62 e23e 8446 34bf
00000160: e84d d1be 444c 50bf 4620 48bf 0180 3abd
00000170: 4a13 01bf e87d 63be 1c40 3b3f a0fb fdbe
00000180: fe7a 18bf 99fe 26bf 5a9b 52bf 47b8 5f3f
00000190: 682f adbe c18b bb3e f15b eb3d 0cbc 74bf
000001a0: 2819 6ebf 831a 693f 1b95 1c3f 2fde 1abf
000001b0: b838 1e3f 0040 23be a01a d9bd a5e7 173f
000001c0: bd39 3f3f 19c2 3bbf f275 2dbf 1e70 4e3e
000001d0: c07f 77be 701b 8fbe 40ba 91bc 4012 f63d
000001e0: 1e9c 8c3e 6b14 91be 16fa 6fbf cc9f 20bf
000001f0: 81a8 85be 17c7 a4be c94a e3bb 7d2e 473f
00000200: bf24 31be e677 813d da2c 64be 79f8 02bf
00000210: c021 5dbd 3ead f63d 19da 21be 040e a3be
00000220: 7dc1 5cbf 4d0e f5be 3120 f23e d912 313d
00000230: 6a7f ccbe 2c78 4ebf 8321 45bf 7cd2 2bbf
00000240: 16d2 15be 0043 7ebf 9161 b23e 5e5d 4a3f
00000250: 3876 2a3f f538 6e3f 14f9 febe 6996 08bf
00000260: c717 e6be e933 92bc fb92 eebe 58a0 fabe
00000270: 3b6b 723f ae5a 883e 5a96 ca3e e509 cfbd
00000280: 8197 7f3f 184b 2f3f 994f 76be bad0 20bd
00000290: 4c41 cd3e f969 693f 60d1 9cbe 4def babd
000002a0: 61dc 2cbd daac 36bd 2385 c53e 7a57 b73d
000002b0: 09d2 0bbe ee8e 36bf 249c 51bf 092e 26bf
000002c0: 2f7e ff3e 4879 9cbe 6818 e0bd f464 efbe
000002d0: ae78 21bf 7e3e a0bd 80d3 553f c726 6bbf
000002e0: 0dad 40bf 08cb 4e3e 5223 f43e 05c4 b1be
000002f0: ff13 6d3f eeec 7abe 32dd 213e 585b 15bf
00000300: 6446 c43c ccf1 5cbf 0e1c 45bf 9a0b 023f
00000310: a10f 2abf f461 b3be 5652 133f 4775 14bf
00000320: 460a e4be 8c00 fd3e 1838 60be 5cb0 47be
00000330: 5a94 5b3f ca8d 29bf ca25 153f 701c 253e
00000340: 33e3 603f 9202 723f b879 5bbf 59d7 30bf
00000350: ce4d 443e 2c12 dfbe 28ed 5cbf 3b89 48bf
00000360: 852d 573f dd82 2dbf 67fe ff3e 7f80 2bbf
00000370: 8599 b83e ba86 3f3f 2200 9b3e 9304 213f
00000380: 64fb 42be bdfc 0cbf a2c9 793f 8139 88bd
00000390: 2ace 2f3f 1d48 013c 62ff f63e 7b8e 21bf
000003a0: 0c89 ad3e 0255 91be b266 c4be 86b7 783e
000003b0: 0476 5cbf 5dbc 4c3f e1f5 443f a0cc 853e
000003c0: 7e47 74bf 2a70 35bf f653 653f 4c8b 7a3f
000003d0: b843 7abe f847 b7be 5718 793e 9a98 333f
000003e0: 3cea 403f df52 ebbe 57fa 6c3f e1a6 3cbf
000003f0: 0879 673f afa0 443f 9fae babe 9edc f13e

weight f4 [1, 256]
-0.017319513 -0.024875654 0.020020386 -0.027884824 0.013812854 0.0077216183 -0.05787593 -0.04305851
-0.027942548 -0.015282855 -0.046666674 -0.03786331 0.028288556 -0.048229948 -0.062136978 -0.01317272
-0.056921955 0.01869378 -0.008912697 -0.02039212 -0.04711943 -0.017904267 -0.028507952 0.0040658857
0.020962484 -0.036352564 0.05658715 -0.03685454 -0.052179124 -0.0562035 -0.009534002 0.044678375
0.018761078 -0.052149247 -0.056759663 0.043170195 -0.045904715 0.07153369 -0.04844624 0.033462606
0.040042605 0.03186501 -0.050517377 0.023671983 -0.011972459 -0.059461325 -0.011446144 0.037381873
-0.00789988 -0.0064881444 -0.024050945 -0.055248708 -0.023098283 0.04949946 0.029676411 -0.02540146
-0.0025164385 0.007935065 -0.01854698 0.038795523 0.03890817 -0.008162059 -0.027297966 -0.05436886
-0.018076427 -0.027401866 -0.036006287 -0.022784298 -0.030463906 0.01886515 -0.015518335 0.03314532
0.0045472253 -0.012788988 0.06291938 -0.022680454 -0.05116631 -0.006373814 0.02328604 -0.031588826
-0.043839134 -0.049191225 0.040376678 -0.047662936 -0.039399788 0.0014726605 -0.050351895 0.02566118
-0.012105465 0.02449115 -0.04142192 0.010879537 -0.014216609 0.025218777 0.004048759 0.008647149
-0.036437184 -0.0026223392 0.015469795 -0.04279674 0.008561985 -0.049091272 -0.040995363 0.023211509
0.0010230467 0.040690467 -0.009703927 0.017945142 -0.0146483155 -0.04927285 -0.0031198417 0.043812122
0.03770531 0.02333345 0.011768625 0.04794724 0.034816697 0.04736811 0.017161898 -8.1822276e-05
-0.03176543 0.00030119135 -0.06025106 -0.058466043 -0.029189764 0.015494199 0.031113192 0.049148306
0.018070191 0.0028176797 0.05470429 -0.004848694 0.036819696 -0.020835608 0.039449945 -0.058833458
0.025770597 -0.014665083 0.017483028 0.014881804 -0.023681564 -0.028616179 -0.048646018 -0.0053799674
-0.059032 -0.026719615 0.074774645 -0.024285937 -0.014333935 0.025083944 0.06557667 -0.0500528
0.0432624 -0.0051080775 -0.029350942 0.050679293 -0.04931856 -0.050944716 0.02343212 0.038678776
0.019527774 -0.014037874 0.027170243 0.015167777 -0.03040804 0.037584174 -0.03874643 -0.060536508
-0.053486392 0.027990699 0.03169248 -0.048604503 0.057976406 0.011490345 0.061137192 -0.043802857
-0.039012607 -0.027346276 0.022541994 -0.039617077 -0.025340376 0.01479116 -0.009654704 0.026958356
0.027268989 0.04204744 -0.014028948 0.026631422 0.027942328 -0.022569621 0.018244233 -0.036288537
-0.009273463 -0.001581312 -0.008033522 0.0166757 -0.052963153 -0.015054239 0.01597148 -0.029612975
-0.03325526 0.052328043 -0.018402755 0.034662507 0.022978088 0.03298062 -0.0089617595 0.03446462
0.053178288 0.057894927 -0.015167053 0.049186893 0.0067437505 -0.02324572 0.052908823 -0.060139604
-0.017617863 -0.045731235 0.04025026 0.032006506 -0.05738827 -0.04398155 -0.046279445 0.06041985
-0.058652125 0.039238602 -0.0038211036 -0.06630393 0.0013139055 0.0037712585 0.05208479 0.044685185
-0.029872993 -0.05826878 0.0016610621 -0.00927406 -0.023104414 0.0016436675 0.018820068 -0.055228226
0.04786197 -0.04162684 0.05448321 0.058418937 -0.044403784 -0.06276624 -0.0101797525 -0.040140945
-0.022416458 -0.05403665 -0.047778048 -0.057398267 -0.045484606 -0.02309474 0.02584882 0.054279193
00000000: a7e1 8dbc 07c8 cbbc cb01 a43c b76e e4bc
00000010: 4f4f 623c a105 fd3b 500f 6dbd 1f5e 30bd
00000020: c5e7 e4bc f164 7abc 8e25 3fbd 8f16 1bbd
00000030: 67bd e73c c48c 45bd 5883 7ebd 64d2 57bc
00000040: ff26 69bd b323 993c 9006 12bc 600d a7bc
00000050: 4e00 41bd f8ab 92bc 8289 e9bc 1f3b 853b
00000060: 84b9 ab3c 6de6 14bd edc7 673d c9f4 16bd
00000070: c7b9 55bd a435 66bd 8134 1cbc ac00 373d
00000080: d5b0 993c 739a 55bd d27c 68bd 3bd3 303d
00000090: 9506 3cbd 4180 923d 916f 46bd 1610 093d
000000a0: b703 243d e284 023d 4feb 4ebd bfeb c13c
000000b0: 2228 44bc b88d 73bd 9c88 3bbc bc1d 193d
000000c0: 806e 01bc 809a d4bb 7d06 c5bc 784c 62bd
000000d0: 9c38 bdbc f2bf 4a3d f21b f33c b916 d0bc
000000e0: d5ea 24bb 1302 023c d6ef 97bc 0ee8 1e3d
000000f0: 2c5e 1f3d 28ba 05bc fc9f dfbc e2b1 5ebd
00000100: 0415 94bc e179 e0bc 547b 13bd 23a6 babc
00000110: 718f f9bc 168b 9a3c 9d40 7ebc 63c3 073d
00000120: e400 953b e788 51bc e0db 803d 5ccc b9bc
00000130: c493 51bd 6ddb d0bb 5ec2 be3c 4963 01bd
00000140: aa90 33bd bd7c 49bd 0462 253d 363a 43bd
00000150: ac61 21bd 4906 c13a ca3d 4ebd 6537 d23c
00000160: 0056 46bc aaa1 c83c 08aa 29bd 1640 323c
00000170: c8ec 68bc 9c97 ce3c 74ab 843b c6ac 0d3c
00000180: 283f 15bd 8ddb 2bbb 0675 7d3c a24b 2fbd
00000190: 9147 0c3c ee13 49bd c1ea 27bd 1026 be3c
000001a0: c017 863a 0cab 263d 38fd 1ebc b101 933c
000001b0: 7dff 6fbc 54d2 49bd 4276 4cbb 5774 333d
000001c0: e270 1a3d cb25 bf3c 31d1 403c 5364 443d
000001d0: f49b 0e3d 1005 423d 1c97 8c3c 0098 abb8
000001e0: 781c 02bd 38e9 9d39 d1c9 76bd 177a 6fbd
000001f0: 5f1f efbc 61db 7d3c 18e1 fe3c bc4f 493d
00000200: f007 943c d2a8 383b 9b11 603d cbe1 9ebb
00000210: 40d0 163d 70af aabc 4496 213d 5afb 70bd
00000220: dc1c d33c d145 70bc 9138 8f3c cfd2 733c
00000230: d7ff c1bc 7a6c eabc 0c41 47bd 704a b0bb
00000240: 8acb 71bd 18e3 dabc 7323 993d 4df3 c6bc
00000250: e2d8 6abc d87c cd3c 104d 863d 2a04 4dbd
00000260: ea33 313d a961 a7bb 6371 f0bc 1795 4f3d
00000270: 4202 4abd 68ab 50bd b8f4 bf3c a36d 1e3d
00000280: b6f8 9f3c 1cff 65bc 2194 de3c 4582 783c
00000290: 481a f9bc ddf1 193d 94b4 1ebd 21f5 77bd
000002a0: 8c14 5bbd c04c e53c f9cf 013d 8415 47bd
000002b0: ab78 6d3d 0042 3c3c fe6a 7a3d a06a 33bd
000002c0: afcb 1fbd 4c05 e0bc fda9 b83c 8445 22bd
000002d0: 9f96 cfbc 9f56 723c c32e 1ebc c5d7 dc3c
000002e0: 3763 df3c f039 2c3d acd9 65bc 242a da3c
000002f0: 4fe7 e43c ede3 b8bc ee74 953c 4aa3 14bd
00000300: b9ef 17bc 0744 cfba 099f 03bc 7a9b 883c
00000310: e4ef 58bd 0ea6 76bc 9fd6 823c e996 f2bc
00000320: ab36 08bd ee55 563d 60c1 96bc 46fa 0d3d
00000330: 8b3c bc3c b016 073d 58d4 12bc c62a 0d3d
00000340: 7ad1 593d 3b23 6d3d 3b7f 78bc 3278 493d
00000350: aefa dc3b cf6d bebc ecb6 583d f254 76bd
00000360: 5653 90bc ad50 3bbd 75dd 243d 4119 033d
00000370: f60f 6bbd ff25 34bd 848f 3dbd ce7a 773d
00000380: 363d 70bd a8b8 203d 7b6b 7abb 5bca 87bd
00000390: 5a37 ac3a 3827 773b dc56 553d d007 373d
000003a0: 35b8 f4bc 3fab 6ebd ffb7 d93a 3af2 17bc
000003b0: 7845 bdbc 5470 d73a 8b2c 9a3c fe36 62bd
000003c0: ea0a 443d e880 2abd c929 5f3d b248 6f3d
000003d0: bee0 35bd 968b 80bd fac8 26bc d56a 24bd
000003e0: b8a2 b7bc 8955 5dbd eab2 43bd 721a 6bbd
000003f0: 114e 3abd 2e31 bdbc e8c0 d33c dc53 5e3d
